{"format": "graph-model", "generatedBy": "2.16.1", "convertedBy": "TensorFlow.js Converter v4.22.0", "signature": {"outputs": {"Identity:0": {"name": "Identity:0"}}}, "modelTopology": {"node": [{"name": "ConstantFolding/model_101/tf.math.divide_2/truediv_recip", "op": "Const", "attr": {"dtype": {"type": "DT_FLOAT"}, "value": {"tensor": {"dtype": "DT_FLOAT", "tensorShape": {"dim": [{"size": "1"}, {"size": "1"}, {"size": "1"}]}}}}}, {"name": "model_101/92054", "op": "Const", "attr": {"dtype": {"type": "DT_FLOAT"}, "value": {"tensor": {"dtype": "DT_FLOAT", "tensorShape": {"dim": [{"size": "1"}, {"size": "2"}, {"size": "1344"}]}}}}}, {"name": "model_101/tf.strided_slice_59/ones_like/tensor", "op": "Const", "attr": {"dtype": {"type": "DT_INT64"}, "value": {"tensor": {"dtype": "DT_INT64", "tensorShape": {"dim": [{"size": "3"}]}}}}}, {"name": "model_101/tf.strided_slice_59/StridedSlice/end", "op": "Const", "attr": {"dtype": {"type": "DT_INT64"}, "value": {"tensor": {"dtype": "DT_INT64", "tensorShape": {"dim": [{"size": "3"}]}}}}}, {"name": "model_101/tf.strided_slice_59/ones_like", "op": "Const", "attr": {"dtype": {"type": "DT_INT64"}, "value": {"tensor": {"dtype": "DT_INT64", "tensorShape": {"dim": [{"size": "3"}]}}}}}, {"name": "model_101/92057", "op": "Const", "attr": {"dtype": {"type": "DT_FLOAT"}, "value": {"tensor": {"dtype": "DT_FLOAT", "tensorShape": {"dim": [{"size": "1"}, {"size": "2"}, {"size": "1344"}]}}}}}, {"name": "model_101/tf.strided_slice_56/StridedSlice/begin", "op": "Const", "attr": {"dtype": {"type": "DT_INT64"}, "value": {"tensor": {"dtype": "DT_INT64", "tensorShape": {"dim": [{"size": "3"}]}}}}}, {"name": "model_101/tf.strided_slice_56/StridedSlice/end", "op": "Const", "attr": {"dtype": {"type": "DT_INT64"}, "value": {"tensor": {"dtype": "DT_INT64", "tensorShape": {"dim": [{"size": "3"}]}}}}}, {"name": "model_101/tf.strided_slice_56/StridedSlice/strides", "op": "Const", "attr": {"value": {"tensor": {"dtype": "DT_INT64", "tensorShape": {"dim": [{"size": "3"}]}}}, "dtype": {"type": "DT_INT64"}}}, {"name": "model_101/tf.reshape_41/Reshape/shape", "op": "Const", "attr": {"dtype": {"type": "DT_INT32"}, "value": {"tensor": {"dtype": "DT_INT32", "tensorShape": {"dim": [{"size": "4"}]}}}}}, {"name": "model_101/tf.compat.v1.transpose_141/transpose/perm", "op": "Const", "attr": {"value": {"tensor": {"dtype": "DT_INT32", "tensorShape": {"dim": [{"size": "4"}]}}}, "dtype": {"type": "DT_INT32"}}}, {"name": "model_101/tf.compat.v1.transpose_142/transpose/perm", "op": "Const", "attr": {"dtype": {"type": "DT_INT32"}, "value": {"tensor": {"dtype": "DT_INT32", "tensorShape": {"dim": [{"size": "4"}]}}}}}, {"name": "model_101/tf.nn.convolution_227/convolution/filter", "op": "Const", "attr": {"dtype": {"type": "DT_FLOAT"}, "value": {"tensor": {"dtype": "DT_FLOAT", "tensorShape": {"dim": [{"size": "1"}, {"size": "1"}, {"size": "16"}, {"size": "1"}]}}}}}, {"name": "model_101/tf.compat.v1.transpose_147/transpose/perm", "op": "Const", "attr": {"value": {"tensor": {"dtype": "DT_INT32", "tensorShape": {"dim": [{"size": "4"}]}}}, "dtype": {"type": "DT_INT32"}}}, {"name": "model_101/tf.reshape_44/Reshape/shape", "op": "Const", "attr": {"dtype": {"type": "DT_INT32"}, "value": {"tensor": {"dtype": "DT_INT32", "tensorShape": {"dim": [{"size": "3"}]}}}}}, {"name": "model_101/tf.strided_slice_58/ones_like/tensor", "op": "Const", "attr": {"value": {"tensor": {"dtype": "DT_INT64", "tensorShape": {"dim": [{"size": "3"}]}}}, "dtype": {"type": "DT_INT64"}}}, {"name": "model_101/tf.strided_slice_58/StridedSlice/end", "op": "Const", "attr": {"dtype": {"type": "DT_INT64"}, "value": {"tensor": {"dtype": "DT_INT64", "tensorShape": {"dim": [{"size": "3"}]}}}}}, {"name": "model_101/tf.strided_slice_58/ones_like", "op": "Const", "attr": {"dtype": {"type": "DT_INT64"}, "value": {"tensor": {"dtype": "DT_INT64", "tensorShape": {"dim": [{"size": "3"}]}}}}}, {"name": "model_101/tf.concat_64/concat/axis", "op": "Const", "attr": {"dtype": {"type": "DT_INT32"}, "value": {"tensor": {"dtype": "DT_INT32", "tensorShape": {}}}}}, {"name": "model_101/tf.math.multiply_758/Mul/y", "op": "Const", "attr": {"value": {"tensor": {"dtype": "DT_FLOAT", "tensorShape": {"dim": [{"size": "1"}, {"size": "1"}, {"size": "1344"}]}}}, "dtype": {"type": "DT_FLOAT"}}}, {"name": "model_101/tf.nn.convolution_200/convolution/filter", "op": "Const", "attr": {"dtype": {"type": "DT_FLOAT"}, "value": {"tensor": {"dtype": "DT_FLOAT", "tensorShape": {"dim": [{"size": "3"}, {"size": "3"}, {"size": "64"}, {"size": "64"}]}}}}}, {"name": "model_101/tf.math.add_238/Add/y", "op": "Const", "attr": {"value": {"tensor": {"dtype": "DT_FLOAT", "tensorShape": {"dim": [{"size": "64"}]}}}, "dtype": {"type": "DT_FLOAT"}}}, {"name": "model_101/tf.nn.convolution_202/convolution/filter", "op": "Const", "attr": {"dtype": {"type": "DT_FLOAT"}, "value": {"tensor": {"dtype": "DT_FLOAT", "tensorShape": {"dim": [{"size": "3"}, {"size": "3"}, {"size": "64"}, {"size": "64"}]}}}}}, {"name": "model_101/tf.math.add_240/Add/y", "op": "Const", "attr": {"dtype": {"type": "DT_FLOAT"}, "value": {"tensor": {"dtype": "DT_FLOAT", "tensorShape": {"dim": [{"size": "64"}]}}}}}, {"name": "model_101/tf.nn.convolution_205/convolution/filter", "op": "Const", "attr": {"value": {"tensor": {"dtype": "DT_FLOAT", "tensorShape": {"dim": [{"size": "1"}, {"size": "1"}, {"size": "64"}, {"size": "64"}]}}}, "dtype": {"type": "DT_FLOAT"}}}, {"name": "model_101/tf.math.add_243/Add/y", "op": "Const", "attr": {"value": {"tensor": {"dtype": "DT_FLOAT", "tensorShape": {"dim": [{"size": "64"}]}}}, "dtype": {"type": "DT_FLOAT"}}}, {"name": "model_101/tf.nn.convolution_201/convolution/filter", "op": "Const", "attr": {"value": {"tensor": {"dtype": "DT_FLOAT", "tensorShape": {"dim": [{"size": "3"}, {"size": "3"}, {"size": "64"}, {"size": "100"}]}}}, "dtype": {"type": "DT_FLOAT"}}}, {"name": "model_101/tf.math.add_239/Add/y", "op": "Const", "attr": {"value": {"tensor": {"dtype": "DT_FLOAT", "tensorShape": {"dim": [{"size": "100"}]}}}, "dtype": {"type": "DT_FLOAT"}}}, {"name": "model_101/tf.nn.convolution_203/convolution/filter", "op": "Const", "attr": {"dtype": {"type": "DT_FLOAT"}, "value": {"tensor": {"dtype": "DT_FLOAT", "tensorShape": {"dim": [{"size": "3"}, {"size": "3"}, {"size": "100"}, {"size": "100"}]}}}}}, {"name": "model_101/tf.math.add_241/Add/y", "op": "Const", "attr": {"dtype": {"type": "DT_FLOAT"}, "value": {"tensor": {"dtype": "DT_FLOAT", "tensorShape": {"dim": [{"size": "100"}]}}}}}, {"name": "model_101/tf.nn.convolution_206/convolution/filter", "op": "Const", "attr": {"dtype": {"type": "DT_FLOAT"}, "value": {"tensor": {"dtype": "DT_FLOAT", "tensorShape": {"dim": [{"size": "1"}, {"size": "1"}, {"size": "100"}, {"size": "601"}]}}}}}, {"name": "model_101/tf.math.add_244/Add/y", "op": "Const", "attr": {"dtype": {"type": "DT_FLOAT"}, "value": {"tensor": {"dtype": "DT_FLOAT", "tensorShape": {"dim": [{"size": "601"}]}}}}}, {"name": "model_101/tf.concat_54/concat/axis", "op": "Const", "attr": {"dtype": {"type": "DT_INT32"}, "value": {"tensor": {"dtype": "DT_INT32", "tensorShape": {}}}}}, {"name": "model_101/tf.compat.v1.transpose_124/transpose/perm", "op": "Const", "attr": {"value": {"tensor": {"dtype": "DT_INT32", "tensorShape": {"dim": [{"size": "4"}]}}}, "dtype": {"type": "DT_INT32"}}}, {"name": "model_101/tf.reshape_32/Reshape/shape", "op": "Const", "attr": {"dtype": {"type": "DT_INT32"}, "value": {"tensor": {"dtype": "DT_INT32", "tensorShape": {"dim": [{"size": "3"}]}}}}}, {"name": "model_101/tf.nn.convolution_211/convolution/filter", "op": "Const", "attr": {"value": {"tensor": {"dtype": "DT_FLOAT", "tensorShape": {"dim": [{"size": "3"}, {"size": "3"}, {"size": "128"}, {"size": "64"}]}}}, "dtype": {"type": "DT_FLOAT"}}}, {"name": "model_101/tf.math.add_249/Add/y", "op": "Const", "attr": {"dtype": {"type": "DT_FLOAT"}, "value": {"tensor": {"dtype": "DT_FLOAT", "tensorShape": {"dim": [{"size": "64"}]}}}}}, {"name": "model_101/tf.nn.convolution_213/convolution/filter", "op": "Const", "attr": {"dtype": {"type": "DT_FLOAT"}, "value": {"tensor": {"dtype": "DT_FLOAT", "tensorShape": {"dim": [{"size": "3"}, {"size": "3"}, {"size": "64"}, {"size": "64"}]}}}}}, {"name": "model_101/tf.math.add_251/Add/y", "op": "Const", "attr": {"dtype": {"type": "DT_FLOAT"}, "value": {"tensor": {"dtype": "DT_FLOAT", "tensorShape": {"dim": [{"size": "64"}]}}}}}, {"name": "model_101/tf.nn.convolution_216/convolution/filter", "op": "Const", "attr": {"dtype": {"type": "DT_FLOAT"}, "value": {"tensor": {"dtype": "DT_FLOAT", "tensorShape": {"dim": [{"size": "1"}, {"size": "1"}, {"size": "64"}, {"size": "64"}]}}}}}, {"name": "model_101/tf.math.add_254/Add/y", "op": "Const", "attr": {"value": {"tensor": {"dtype": "DT_FLOAT", "tensorShape": {"dim": [{"size": "64"}]}}}, "dtype": {"type": "DT_FLOAT"}}}, {"name": "model_101/tf.nn.convolution_212/convolution/filter", "op": "Const", "attr": {"value": {"tensor": {"dtype": "DT_FLOAT", "tensorShape": {"dim": [{"size": "3"}, {"size": "3"}, {"size": "128"}, {"size": "100"}]}}}, "dtype": {"type": "DT_FLOAT"}}}, {"name": "model_101/tf.math.add_250/Add/y", "op": "Const", "attr": {"value": {"tensor": {"dtype": "DT_FLOAT", "tensorShape": {"dim": [{"size": "100"}]}}}, "dtype": {"type": "DT_FLOAT"}}}, {"name": "model_101/tf.nn.convolution_214/convolution/filter", "op": "Const", "attr": {"value": {"tensor": {"dtype": "DT_FLOAT", "tensorShape": {"dim": [{"size": "3"}, {"size": "3"}, {"size": "100"}, {"size": "100"}]}}}, "dtype": {"type": "DT_FLOAT"}}}, {"name": "model_101/tf.math.add_252/Add/y", "op": "Const", "attr": {"value": {"tensor": {"dtype": "DT_FLOAT", "tensorShape": {"dim": [{"size": "100"}]}}}, "dtype": {"type": "DT_FLOAT"}}}, {"name": "model_101/tf.nn.convolution_217/convolution/filter", "op": "Const", "attr": {"dtype": {"type": "DT_FLOAT"}, "value": {"tensor": {"dtype": "DT_FLOAT", "tensorShape": {"dim": [{"size": "1"}, {"size": "1"}, {"size": "100"}, {"size": "601"}]}}}}}, {"name": "model_101/tf.math.add_255/Add/y", "op": "Const", "attr": {"dtype": {"type": "DT_FLOAT"}, "value": {"tensor": {"dtype": "DT_FLOAT", "tensorShape": {"dim": [{"size": "601"}]}}}}}, {"name": "model_101/tf.concat_57/concat/axis", "op": "Const", "attr": {"dtype": {"type": "DT_INT32"}, "value": {"tensor": {"dtype": "DT_INT32", "tensorShape": {}}}}}, {"name": "model_101/tf.compat.v1.transpose_129/transpose/perm", "op": "Const", "attr": {"dtype": {"type": "DT_INT32"}, "value": {"tensor": {"dtype": "DT_INT32", "tensorShape": {"dim": [{"size": "4"}]}}}}}, {"name": "model_101/tf.reshape_35/Reshape/shape", "op": "Const", "attr": {"value": {"tensor": {"dtype": "DT_INT32", "tensorShape": {"dim": [{"size": "3"}]}}}, "dtype": {"type": "DT_INT32"}}}, {"name": "model_101/tf.nn.convolution_221/convolution/filter", "op": "Const", "attr": {"value": {"tensor": {"dtype": "DT_FLOAT", "tensorShape": {"dim": [{"size": "3"}, {"size": "3"}, {"size": "256"}, {"size": "64"}]}}}, "dtype": {"type": "DT_FLOAT"}}}, {"name": "model_101/tf.math.add_259/Add/y", "op": "Const", "attr": {"value": {"tensor": {"dtype": "DT_FLOAT", "tensorShape": {"dim": [{"size": "64"}]}}}, "dtype": {"type": "DT_FLOAT"}}}, {"name": "model_101/tf.nn.convolution_223/convolution/filter", "op": "Const", "attr": {"value": {"tensor": {"dtype": "DT_FLOAT", "tensorShape": {"dim": [{"size": "3"}, {"size": "3"}, {"size": "64"}, {"size": "64"}]}}}, "dtype": {"type": "DT_FLOAT"}}}, {"name": "model_101/tf.math.add_261/Add/y", "op": "Const", "attr": {"dtype": {"type": "DT_FLOAT"}, "value": {"tensor": {"dtype": "DT_FLOAT", "tensorShape": {"dim": [{"size": "64"}]}}}}}, {"name": "model_101/tf.nn.convolution_225/convolution/filter", "op": "Const", "attr": {"value": {"tensor": {"dtype": "DT_FLOAT", "tensorShape": {"dim": [{"size": "1"}, {"size": "1"}, {"size": "64"}, {"size": "64"}]}}}, "dtype": {"type": "DT_FLOAT"}}}, {"name": "model_101/tf.math.add_263/Add/y", "op": "Const", "attr": {"dtype": {"type": "DT_FLOAT"}, "value": {"tensor": {"dtype": "DT_FLOAT", "tensorShape": {"dim": [{"size": "64"}]}}}}}, {"name": "model_101/tf.strided_slice_54/ones_like/tensor", "op": "Const", "attr": {"dtype": {"type": "DT_INT64"}, "value": {"tensor": {"dtype": "DT_INT64", "tensorShape": {"dim": [{"size": "4"}]}}}}}, {"name": "model_101/tf.strided_slice_54/StridedSlice/end", "op": "Const", "attr": {"value": {"tensor": {"dtype": "DT_INT64", "tensorShape": {"dim": [{"size": "4"}]}}}, "dtype": {"type": "DT_INT64"}}}, {"name": "model_101/tf.strided_slice_54/ones_like", "op": "Const", "attr": {"dtype": {"type": "DT_INT64"}, "value": {"tensor": {"dtype": "DT_INT64", "tensorShape": {"dim": [{"size": "4"}]}}}}}, {"name": "model_101/tf.strided_slice_52/ones_like/tensor", "op": "Const", "attr": {"value": {"tensor": {"dtype": "DT_INT64", "tensorShape": {"dim": [{"size": "4"}]}}}, "dtype": {"type": "DT_INT64"}}}, {"name": "model_101/tf.strided_slice_52/StridedSlice/end", "op": "Const", "attr": {"dtype": {"type": "DT_INT64"}, "value": {"tensor": {"dtype": "DT_INT64", "tensorShape": {"dim": [{"size": "4"}]}}}}}, {"name": "model_101/tf.strided_slice_52/ones_like", "op": "Const", "attr": {"dtype": {"type": "DT_INT64"}, "value": {"tensor": {"dtype": "DT_INT64", "tensorShape": {"dim": [{"size": "4"}]}}}}}, {"name": "model_101/tf.strided_slice_50/ones_like/tensor", "op": "Const", "attr": {"dtype": {"type": "DT_INT64"}, "value": {"tensor": {"dtype": "DT_INT64", "tensorShape": {"dim": [{"size": "4"}]}}}}}, {"name": "model_101/tf.strided_slice_50/StridedSlice/end", "op": "Const", "attr": {"value": {"tensor": {"dtype": "DT_INT64", "tensorShape": {"dim": [{"size": "4"}]}}}, "dtype": {"type": "DT_INT64"}}}, {"name": "model_101/tf.strided_slice_50/ones_like", "op": "Const", "attr": {"dtype": {"type": "DT_INT64"}, "value": {"tensor": {"dtype": "DT_INT64", "tensorShape": {"dim": [{"size": "4"}]}}}}}, {"name": "model_101/tf.image.resize_5/resize/size", "op": "Const", "attr": {"value": {"tensor": {"dtype": "DT_INT32", "tensorShape": {"dim": [{"size": "2"}]}}}, "dtype": {"type": "DT_INT32"}}}, {"name": "model_101/tf.concat_51/concat/axis", "op": "Const", "attr": {"dtype": {"type": "DT_INT32"}, "value": {"tensor": {"dtype": "DT_INT32", "tensorShape": {}}}}}, {"name": "model_101/tf.nn.convolution_191/convolution/filter", "op": "Const", "attr": {"dtype": {"type": "DT_FLOAT"}, "value": {"tensor": {"dtype": "DT_FLOAT", "tensorShape": {"dim": [{"size": "1"}, {"size": "1"}, {"size": "192"}, {"size": "64"}]}}}}}, {"name": "model_101/tf.math.add_229/Add/y", "op": "Const", "attr": {"dtype": {"type": "DT_FLOAT"}, "value": {"tensor": {"dtype": "DT_FLOAT", "tensorShape": {"dim": [{"size": "64"}]}}}}}, {"name": "model_101/tf.strided_slice_51/ones_like/tensor", "op": "Const", "attr": {"dtype": {"type": "DT_INT64"}, "value": {"tensor": {"dtype": "DT_INT64", "tensorShape": {"dim": [{"size": "4"}]}}}}}, {"name": "model_101/tf.strided_slice_51/StridedSlice/end", "op": "Const", "attr": {"dtype": {"type": "DT_INT64"}, "value": {"tensor": {"dtype": "DT_INT64", "tensorShape": {"dim": [{"size": "4"}]}}}}}, {"name": "model_101/tf.strided_slice_51/ones_like", "op": "Const", "attr": {"dtype": {"type": "DT_INT64"}, "value": {"tensor": {"dtype": "DT_INT64", "tensorShape": {"dim": [{"size": "4"}]}}}}}, {"name": "model_101/tf.nn.convolution_194/convolution/filter", "op": "Const", "attr": {"dtype": {"type": "DT_FLOAT"}, "value": {"tensor": {"dtype": "DT_FLOAT", "tensorShape": {"dim": [{"size": "3"}, {"size": "3"}, {"size": "32"}, {"size": "32"}]}}}}}, {"name": "model_101/tf.math.add_232/Add/y", "op": "Const", "attr": {"dtype": {"type": "DT_FLOAT"}, "value": {"tensor": {"dtype": "DT_FLOAT", "tensorShape": {"dim": [{"size": "32"}]}}}}}, {"name": "model_101/tf.nn.convolution_197/convolution/filter", "op": "Const", "attr": {"value": {"tensor": {"dtype": "DT_FLOAT", "tensorShape": {"dim": [{"size": "3"}, {"size": "3"}, {"size": "32"}, {"size": "32"}]}}}, "dtype": {"type": "DT_FLOAT"}}}, {"name": "model_101/tf.math.add_235/Add/y", "op": "Const", "attr": {"value": {"tensor": {"dtype": "DT_FLOAT", "tensorShape": {"dim": [{"size": "32"}]}}}, "dtype": {"type": "DT_FLOAT"}}}, {"name": "model_101/tf.concat_52/concat/axis", "op": "Const", "attr": {"value": {"tensor": {"dtype": "DT_INT32", "tensorShape": {}}}, "dtype": {"type": "DT_INT32"}}}, {"name": "model_101/tf.nn.convolution_198/convolution/filter", "op": "Const", "attr": {"dtype": {"type": "DT_FLOAT"}, "value": {"tensor": {"dtype": "DT_FLOAT", "tensorShape": {"dim": [{"size": "1"}, {"size": "1"}, {"size": "96"}, {"size": "64"}]}}}}}, {"name": "model_101/tf.math.add_236/Add/y", "op": "Const", "attr": {"dtype": {"type": "DT_FLOAT"}, "value": {"tensor": {"dtype": "DT_FLOAT", "tensorShape": {"dim": [{"size": "64"}]}}}}}, {"name": "model_101/tf.compat.v1.pad_19/Pad/paddings", "op": "Const", "attr": {"dtype": {"type": "DT_INT32"}, "value": {"tensor": {"dtype": "DT_INT32", "tensorShape": {"dim": [{"size": "4"}, {"size": "2"}]}}}}}, {"name": "model_101/tf.nn.convolution_199/convolution/filter", "op": "Const", "attr": {"value": {"tensor": {"dtype": "DT_FLOAT", "tensorShape": {"dim": [{"size": "3"}, {"size": "3"}, {"size": "64"}, {"size": "64"}]}}}, "dtype": {"type": "DT_FLOAT"}}}, {"name": "model_101/tf.math.add_237/Add/y", "op": "Const", "attr": {"value": {"tensor": {"dtype": "DT_FLOAT", "tensorShape": {"dim": [{"size": "64"}]}}}, "dtype": {"type": "DT_FLOAT"}}}, {"name": "model_101/tf.strided_slice_48/ones_like/tensor", "op": "Const", "attr": {"value": {"tensor": {"dtype": "DT_INT64", "tensorShape": {"dim": [{"size": "4"}]}}}, "dtype": {"type": "DT_INT64"}}}, {"name": "model_101/tf.strided_slice_48/StridedSlice/end", "op": "Const", "attr": {"dtype": {"type": "DT_INT64"}, "value": {"tensor": {"dtype": "DT_INT64", "tensorShape": {"dim": [{"size": "4"}]}}}}}, {"name": "model_101/tf.strided_slice_48/ones_like", "op": "Const", "attr": {"dtype": {"type": "DT_INT64"}, "value": {"tensor": {"dtype": "DT_INT64", "tensorShape": {"dim": [{"size": "4"}]}}}}}, {"name": "model_101/tf.image.resize_4/resize/size", "op": "Const", "attr": {"dtype": {"type": "DT_INT32"}, "value": {"tensor": {"dtype": "DT_INT32", "tensorShape": {"dim": [{"size": "2"}]}}}}}, {"name": "model_101/tf.concat_49/concat/axis", "op": "Const", "attr": {"value": {"tensor": {"dtype": "DT_INT32", "tensorShape": {}}}, "dtype": {"type": "DT_INT32"}}}, {"name": "model_101/tf.nn.convolution_187/convolution/filter", "op": "Const", "attr": {"value": {"tensor": {"dtype": "DT_FLOAT", "tensorShape": {"dim": [{"size": "1"}, {"size": "1"}, {"size": "384"}, {"size": "128"}]}}}, "dtype": {"type": "DT_FLOAT"}}}, {"name": "model_101/tf.math.add_225/Add/y", "op": "Const", "attr": {"value": {"tensor": {"dtype": "DT_FLOAT", "tensorShape": {"dim": [{"size": "128"}]}}}, "dtype": {"type": "DT_FLOAT"}}}, {"name": "model_101/tf.strided_slice_49/ones_like/tensor", "op": "Const", "attr": {"value": {"tensor": {"dtype": "DT_INT64", "tensorShape": {"dim": [{"size": "4"}]}}}, "dtype": {"type": "DT_INT64"}}}, {"name": "model_101/tf.strided_slice_49/StridedSlice/end", "op": "Const", "attr": {"dtype": {"type": "DT_INT64"}, "value": {"tensor": {"dtype": "DT_INT64", "tensorShape": {"dim": [{"size": "4"}]}}}}}, {"name": "model_101/tf.strided_slice_49/ones_like", "op": "Const", "attr": {"value": {"tensor": {"dtype": "DT_INT64", "tensorShape": {"dim": [{"size": "4"}]}}}, "dtype": {"type": "DT_INT64"}}}, {"name": "model_101/tf.nn.convolution_188/convolution/filter", "op": "Const", "attr": {"value": {"tensor": {"dtype": "DT_FLOAT", "tensorShape": {"dim": [{"size": "3"}, {"size": "3"}, {"size": "64"}, {"size": "64"}]}}}, "dtype": {"type": "DT_FLOAT"}}}, {"name": "model_101/tf.math.add_226/Add/y", "op": "Const", "attr": {"value": {"tensor": {"dtype": "DT_FLOAT", "tensorShape": {"dim": [{"size": "64"}]}}}, "dtype": {"type": "DT_FLOAT"}}}, {"name": "model_101/tf.nn.convolution_189/convolution/filter", "op": "Const", "attr": {"dtype": {"type": "DT_FLOAT"}, "value": {"tensor": {"dtype": "DT_FLOAT", "tensorShape": {"dim": [{"size": "3"}, {"size": "3"}, {"size": "64"}, {"size": "64"}]}}}}}, {"name": "model_101/tf.math.add_227/Add/y", "op": "Const", "attr": {"dtype": {"type": "DT_FLOAT"}, "value": {"tensor": {"dtype": "DT_FLOAT", "tensorShape": {"dim": [{"size": "64"}]}}}}}, {"name": "model_101/tf.concat_50/concat/axis", "op": "Const", "attr": {"dtype": {"type": "DT_INT32"}, "value": {"tensor": {"dtype": "DT_INT32", "tensorShape": {}}}}}, {"name": "model_101/tf.nn.convolution_190/convolution/filter", "op": "Const", "attr": {"value": {"tensor": {"dtype": "DT_FLOAT", "tensorShape": {"dim": [{"size": "1"}, {"size": "1"}, {"size": "192"}, {"size": "128"}]}}}, "dtype": {"type": "DT_FLOAT"}}}, {"name": "model_101/tf.math.add_228/Add/y", "op": "Const", "attr": {"dtype": {"type": "DT_FLOAT"}, "value": {"tensor": {"dtype": "DT_FLOAT", "tensorShape": {"dim": [{"size": "128"}]}}}}}, {"name": "model_101/tf.concat_53/concat/axis", "op": "Const", "attr": {"value": {"tensor": {"dtype": "DT_INT32", "tensorShape": {}}}, "dtype": {"type": "DT_INT32"}}}, {"name": "model_101/tf.nn.convolution_204/convolution/filter", "op": "Const", "attr": {"dtype": {"type": "DT_FLOAT"}, "value": {"tensor": {"dtype": "DT_FLOAT", "tensorShape": {"dim": [{"size": "1"}, {"size": "1"}, {"size": "192"}, {"size": "128"}]}}}}}, {"name": "model_101/tf.math.add_242/Add/y", "op": "Const", "attr": {"value": {"tensor": {"dtype": "DT_FLOAT", "tensorShape": {"dim": [{"size": "128"}]}}}, "dtype": {"type": "DT_FLOAT"}}}, {"name": "model_101/tf.strided_slice_53/ones_like/tensor", "op": "Const", "attr": {"dtype": {"type": "DT_INT64"}, "value": {"tensor": {"dtype": "DT_INT64", "tensorShape": {"dim": [{"size": "4"}]}}}}}, {"name": "model_101/tf.strided_slice_53/StridedSlice/end", "op": "Const", "attr": {"dtype": {"type": "DT_INT64"}, "value": {"tensor": {"dtype": "DT_INT64", "tensorShape": {"dim": [{"size": "4"}]}}}}}, {"name": "model_101/tf.strided_slice_53/ones_like", "op": "Const", "attr": {"value": {"tensor": {"dtype": "DT_INT64", "tensorShape": {"dim": [{"size": "4"}]}}}, "dtype": {"type": "DT_INT64"}}}, {"name": "model_101/tf.nn.convolution_207/convolution/filter", "op": "Const", "attr": {"dtype": {"type": "DT_FLOAT"}, "value": {"tensor": {"dtype": "DT_FLOAT", "tensorShape": {"dim": [{"size": "3"}, {"size": "3"}, {"size": "64"}, {"size": "64"}]}}}}}, {"name": "model_101/tf.math.add_245/Add/y", "op": "Const", "attr": {"dtype": {"type": "DT_FLOAT"}, "value": {"tensor": {"dtype": "DT_FLOAT", "tensorShape": {"dim": [{"size": "64"}]}}}}}, {"name": "model_101/tf.nn.convolution_208/convolution/filter", "op": "Const", "attr": {"dtype": {"type": "DT_FLOAT"}, "value": {"tensor": {"dtype": "DT_FLOAT", "tensorShape": {"dim": [{"size": "3"}, {"size": "3"}, {"size": "64"}, {"size": "64"}]}}}}}, {"name": "model_101/tf.math.add_246/Add/y", "op": "Const", "attr": {"dtype": {"type": "DT_FLOAT"}, "value": {"tensor": {"dtype": "DT_FLOAT", "tensorShape": {"dim": [{"size": "64"}]}}}}}, {"name": "model_101/tf.concat_55/concat/axis", "op": "Const", "attr": {"value": {"tensor": {"dtype": "DT_INT32", "tensorShape": {}}}, "dtype": {"type": "DT_INT32"}}}, {"name": "model_101/tf.nn.convolution_209/convolution/filter", "op": "Const", "attr": {"value": {"tensor": {"dtype": "DT_FLOAT", "tensorShape": {"dim": [{"size": "1"}, {"size": "1"}, {"size": "192"}, {"size": "128"}]}}}, "dtype": {"type": "DT_FLOAT"}}}, {"name": "model_101/tf.math.add_247/Add/y", "op": "Const", "attr": {"value": {"tensor": {"dtype": "DT_FLOAT", "tensorShape": {"dim": [{"size": "128"}]}}}, "dtype": {"type": "DT_FLOAT"}}}, {"name": "model_101/tf.compat.v1.pad_20/Pad/paddings", "op": "Const", "attr": {"dtype": {"type": "DT_INT32"}, "value": {"tensor": {"dtype": "DT_INT32", "tensorShape": {"dim": [{"size": "4"}, {"size": "2"}]}}}}}, {"name": "model_101/tf.nn.convolution_210/convolution/filter", "op": "Const", "attr": {"dtype": {"type": "DT_FLOAT"}, "value": {"tensor": {"dtype": "DT_FLOAT", "tensorShape": {"dim": [{"size": "3"}, {"size": "3"}, {"size": "128"}, {"size": "128"}]}}}}}, {"name": "model_101/tf.math.add_248/Add/y", "op": "Const", "attr": {"dtype": {"type": "DT_FLOAT"}, "value": {"tensor": {"dtype": "DT_FLOAT", "tensorShape": {"dim": [{"size": "128"}]}}}}}, {"name": "model_101/tf.strided_slice_46/ones_like/tensor", "op": "Const", "attr": {"value": {"tensor": {"dtype": "DT_INT64", "tensorShape": {"dim": [{"size": "4"}]}}}, "dtype": {"type": "DT_INT64"}}}, {"name": "model_101/tf.strided_slice_46/StridedSlice/end", "op": "Const", "attr": {"value": {"tensor": {"dtype": "DT_INT64", "tensorShape": {"dim": [{"size": "4"}]}}}, "dtype": {"type": "DT_INT64"}}}, {"name": "model_101/tf.strided_slice_46/ones_like", "op": "Const", "attr": {"dtype": {"type": "DT_INT64"}, "value": {"tensor": {"dtype": "DT_INT64", "tensorShape": {"dim": [{"size": "4"}]}}}}}, {"name": "model_101/tf.strided_slice_44/ones_like/tensor", "op": "Const", "attr": {"value": {"tensor": {"dtype": "DT_INT64", "tensorShape": {"dim": [{"size": "4"}]}}}, "dtype": {"type": "DT_INT64"}}}, {"name": "model_101/tf.strided_slice_44/StridedSlice/end", "op": "Const", "attr": {"dtype": {"type": "DT_INT64"}, "value": {"tensor": {"dtype": "DT_INT64", "tensorShape": {"dim": [{"size": "4"}]}}}}}, {"name": "model_101/tf.strided_slice_44/ones_like", "op": "Const", "attr": {"dtype": {"type": "DT_INT64"}, "value": {"tensor": {"dtype": "DT_INT64", "tensorShape": {"dim": [{"size": "4"}]}}}}}, {"name": "model_101/tf.strided_slice_42/ones_like/tensor", "op": "Const", "attr": {"value": {"tensor": {"dtype": "DT_INT64", "tensorShape": {"dim": [{"size": "4"}]}}}, "dtype": {"type": "DT_INT64"}}}, {"name": "model_101/tf.strided_slice_42/StridedSlice/end", "op": "Const", "attr": {"dtype": {"type": "DT_INT64"}, "value": {"tensor": {"dtype": "DT_INT64", "tensorShape": {"dim": [{"size": "4"}]}}}}}, {"name": "model_101/tf.strided_slice_42/ones_like", "op": "Const", "attr": {"dtype": {"type": "DT_INT64"}, "value": {"tensor": {"dtype": "DT_INT64", "tensorShape": {"dim": [{"size": "4"}]}}}}}, {"name": "model_101/tf.strided_slice_40/ones_like/tensor", "op": "Const", "attr": {"dtype": {"type": "DT_INT64"}, "value": {"tensor": {"dtype": "DT_INT64", "tensorShape": {"dim": [{"size": "4"}]}}}}}, {"name": "model_101/tf.strided_slice_40/StridedSlice/end", "op": "Const", "attr": {"value": {"tensor": {"dtype": "DT_INT64", "tensorShape": {"dim": [{"size": "4"}]}}}, "dtype": {"type": "DT_INT64"}}}, {"name": "model_101/tf.strided_slice_40/ones_like", "op": "Const", "attr": {"dtype": {"type": "DT_INT64"}, "value": {"tensor": {"dtype": "DT_INT64", "tensorShape": {"dim": [{"size": "4"}]}}}}}, {"name": "model_101/tf.compat.v1.pad_14/Pad/paddings", "op": "Const", "attr": {"value": {"tensor": {"dtype": "DT_INT32", "tensorShape": {"dim": [{"size": "4"}, {"size": "2"}]}}}, "dtype": {"type": "DT_INT32"}}}, {"name": "model_101/tf.nn.convolution_152/convolution/filter", "op": "Const", "attr": {"value": {"tensor": {"dtype": "DT_FLOAT", "tensorShape": {"dim": [{"size": "3"}, {"size": "3"}, {"size": "3"}, {"size": "16"}]}}}, "dtype": {"type": "DT_FLOAT"}}}, {"name": "model_101/tf.math.add_178/Add/y", "op": "Const", "attr": {"value": {"tensor": {"dtype": "DT_FLOAT", "tensorShape": {"dim": [{"size": "16"}]}}}, "dtype": {"type": "DT_FLOAT"}}}, {"name": "model_101/tf.compat.v1.pad_15/Pad/paddings", "op": "Const", "attr": {"dtype": {"type": "DT_INT32"}, "value": {"tensor": {"dtype": "DT_INT32", "tensorShape": {"dim": [{"size": "4"}, {"size": "2"}]}}}}}, {"name": "model_101/tf.nn.convolution_153/convolution/filter", "op": "Const", "attr": {"dtype": {"type": "DT_FLOAT"}, "value": {"tensor": {"dtype": "DT_FLOAT", "tensorShape": {"dim": [{"size": "3"}, {"size": "3"}, {"size": "16"}, {"size": "32"}]}}}}}, {"name": "model_101/tf.math.add_179/Add/y", "op": "Const", "attr": {"value": {"tensor": {"dtype": "DT_FLOAT", "tensorShape": {"dim": [{"size": "32"}]}}}, "dtype": {"type": "DT_FLOAT"}}}, {"name": "model_101/tf.nn.convolution_154/convolution/filter", "op": "Const", "attr": {"value": {"tensor": {"dtype": "DT_FLOAT", "tensorShape": {"dim": [{"size": "1"}, {"size": "1"}, {"size": "32"}, {"size": "32"}]}}}, "dtype": {"type": "DT_FLOAT"}}}, {"name": "model_101/tf.math.add_180/Add/y", "op": "Const", "attr": {"dtype": {"type": "DT_FLOAT"}, "value": {"tensor": {"dtype": "DT_FLOAT", "tensorShape": {"dim": [{"size": "32"}]}}}}}, {"name": "model_101/tf.strided_slice_41/ones_like/tensor", "op": "Const", "attr": {"value": {"tensor": {"dtype": "DT_INT64", "tensorShape": {"dim": [{"size": "4"}]}}}, "dtype": {"type": "DT_INT64"}}}, {"name": "model_101/tf.strided_slice_41/StridedSlice/end", "op": "Const", "attr": {"value": {"tensor": {"dtype": "DT_INT64", "tensorShape": {"dim": [{"size": "4"}]}}}, "dtype": {"type": "DT_INT64"}}}, {"name": "model_101/tf.strided_slice_41/ones_like", "op": "Const", "attr": {"value": {"tensor": {"dtype": "DT_INT64", "tensorShape": {"dim": [{"size": "4"}]}}}, "dtype": {"type": "DT_INT64"}}}, {"name": "model_101/tf.nn.convolution_155/convolution/filter", "op": "Const", "attr": {"value": {"tensor": {"dtype": "DT_FLOAT", "tensorShape": {"dim": [{"size": "3"}, {"size": "3"}, {"size": "16"}, {"size": "16"}]}}}, "dtype": {"type": "DT_FLOAT"}}}, {"name": "model_101/tf.math.add_181/Add/y", "op": "Const", "attr": {"value": {"tensor": {"dtype": "DT_FLOAT", "tensorShape": {"dim": [{"size": "16"}]}}}, "dtype": {"type": "DT_FLOAT"}}}, {"name": "model_101/tf.nn.convolution_156/convolution/filter", "op": "Const", "attr": {"value": {"tensor": {"dtype": "DT_FLOAT", "tensorShape": {"dim": [{"size": "3"}, {"size": "3"}, {"size": "16"}, {"size": "16"}]}}}, "dtype": {"type": "DT_FLOAT"}}}, {"name": "model_101/tf.math.add_182/Add/y", "op": "Const", "attr": {"dtype": {"type": "DT_FLOAT"}, "value": {"tensor": {"dtype": "DT_FLOAT", "tensorShape": {"dim": [{"size": "16"}]}}}}}, {"name": "model_101/tf.concat_44/concat/axis", "op": "Const", "attr": {"value": {"tensor": {"dtype": "DT_INT32", "tensorShape": {}}}, "dtype": {"type": "DT_INT32"}}}, {"name": "model_101/tf.nn.convolution_157/convolution/filter", "op": "Const", "attr": {"dtype": {"type": "DT_FLOAT"}, "value": {"tensor": {"dtype": "DT_FLOAT", "tensorShape": {"dim": [{"size": "1"}, {"size": "1"}, {"size": "48"}, {"size": "32"}]}}}}}, {"name": "model_101/tf.math.add_185/Add/y", "op": "Const", "attr": {"value": {"tensor": {"dtype": "DT_FLOAT", "tensorShape": {"dim": [{"size": "32"}]}}}, "dtype": {"type": "DT_FLOAT"}}}, {"name": "model_101/tf.compat.v1.pad_16/Pad/paddings", "op": "Const", "attr": {"value": {"tensor": {"dtype": "DT_INT32", "tensorShape": {"dim": [{"size": "4"}, {"size": "2"}]}}}, "dtype": {"type": "DT_INT32"}}}, {"name": "model_101/tf.nn.convolution_158/convolution/filter", "op": "Const", "attr": {"value": {"tensor": {"dtype": "DT_FLOAT", "tensorShape": {"dim": [{"size": "3"}, {"size": "3"}, {"size": "32"}, {"size": "64"}]}}}, "dtype": {"type": "DT_FLOAT"}}}, {"name": "model_101/tf.math.add_186/Add/y", "op": "Const", "attr": {"value": {"tensor": {"dtype": "DT_FLOAT", "tensorShape": {"dim": [{"size": "64"}]}}}, "dtype": {"type": "DT_FLOAT"}}}, {"name": "model_101/tf.nn.convolution_159/convolution/filter", "op": "Const", "attr": {"dtype": {"type": "DT_FLOAT"}, "value": {"tensor": {"dtype": "DT_FLOAT", "tensorShape": {"dim": [{"size": "1"}, {"size": "1"}, {"size": "64"}, {"size": "64"}]}}}}}, {"name": "model_101/tf.math.add_187/Add/y", "op": "Const", "attr": {"dtype": {"type": "DT_FLOAT"}, "value": {"tensor": {"dtype": "DT_FLOAT", "tensorShape": {"dim": [{"size": "64"}]}}}}}, {"name": "model_101/tf.strided_slice_43/ones_like/tensor", "op": "Const", "attr": {"dtype": {"type": "DT_INT64"}, "value": {"tensor": {"dtype": "DT_INT64", "tensorShape": {"dim": [{"size": "4"}]}}}}}, {"name": "model_101/tf.strided_slice_43/StridedSlice/end", "op": "Const", "attr": {"value": {"tensor": {"dtype": "DT_INT64", "tensorShape": {"dim": [{"size": "4"}]}}}, "dtype": {"type": "DT_INT64"}}}, {"name": "model_101/tf.strided_slice_43/ones_like", "op": "Const", "attr": {"value": {"tensor": {"dtype": "DT_INT64", "tensorShape": {"dim": [{"size": "4"}]}}}, "dtype": {"type": "DT_INT64"}}}, {"name": "model_101/tf.nn.convolution_162/convolution/filter", "op": "Const", "attr": {"value": {"tensor": {"dtype": "DT_FLOAT", "tensorShape": {"dim": [{"size": "3"}, {"size": "3"}, {"size": "32"}, {"size": "32"}]}}}, "dtype": {"type": "DT_FLOAT"}}}, {"name": "model_101/tf.math.add_190/Add/y", "op": "Const", "attr": {"value": {"tensor": {"dtype": "DT_FLOAT", "tensorShape": {"dim": [{"size": "32"}]}}}, "dtype": {"type": "DT_FLOAT"}}}, {"name": "model_101/tf.nn.convolution_165/convolution/filter", "op": "Const", "attr": {"value": {"tensor": {"dtype": "DT_FLOAT", "tensorShape": {"dim": [{"size": "3"}, {"size": "3"}, {"size": "32"}, {"size": "32"}]}}}, "dtype": {"type": "DT_FLOAT"}}}, {"name": "model_101/tf.math.add_193/Add/y", "op": "Const", "attr": {"value": {"tensor": {"dtype": "DT_FLOAT", "tensorShape": {"dim": [{"size": "32"}]}}}, "dtype": {"type": "DT_FLOAT"}}}, {"name": "model_101/tf.nn.convolution_168/convolution/filter", "op": "Const", "attr": {"value": {"tensor": {"dtype": "DT_FLOAT", "tensorShape": {"dim": [{"size": "3"}, {"size": "3"}, {"size": "32"}, {"size": "32"}]}}}, "dtype": {"type": "DT_FLOAT"}}}, {"name": "model_101/tf.math.add_198/Add/y", "op": "Const", "attr": {"value": {"tensor": {"dtype": "DT_FLOAT", "tensorShape": {"dim": [{"size": "32"}]}}}, "dtype": {"type": "DT_FLOAT"}}}, {"name": "model_101/tf.nn.convolution_171/convolution/filter", "op": "Const", "attr": {"value": {"tensor": {"dtype": "DT_FLOAT", "tensorShape": {"dim": [{"size": "3"}, {"size": "3"}, {"size": "32"}, {"size": "32"}]}}}, "dtype": {"type": "DT_FLOAT"}}}, {"name": "model_101/tf.math.add_201/Add/y", "op": "Const", "attr": {"dtype": {"type": "DT_FLOAT"}, "value": {"tensor": {"dtype": "DT_FLOAT", "tensorShape": {"dim": [{"size": "32"}]}}}}}, {"name": "model_101/tf.concat_45/concat/axis", "op": "Const", "attr": {"dtype": {"type": "DT_INT32"}, "value": {"tensor": {"dtype": "DT_INT32", "tensorShape": {}}}}}, {"name": "model_101/tf.nn.convolution_172/convolution/filter", "op": "Const", "attr": {"value": {"tensor": {"dtype": "DT_FLOAT", "tensorShape": {"dim": [{"size": "1"}, {"size": "1"}, {"size": "128"}, {"size": "64"}]}}}, "dtype": {"type": "DT_FLOAT"}}}, {"name": "model_101/tf.math.add_204/Add/y", "op": "Const", "attr": {"value": {"tensor": {"dtype": "DT_FLOAT", "tensorShape": {"dim": [{"size": "64"}]}}}, "dtype": {"type": "DT_FLOAT"}}}, {"name": "model_101/tf.compat.v1.pad_17/Pad/paddings", "op": "Const", "attr": {"dtype": {"type": "DT_INT32"}, "value": {"tensor": {"dtype": "DT_INT32", "tensorShape": {"dim": [{"size": "4"}, {"size": "2"}]}}}}}, {"name": "model_101/tf.nn.convolution_173/convolution/filter", "op": "Const", "attr": {"value": {"tensor": {"dtype": "DT_FLOAT", "tensorShape": {"dim": [{"size": "3"}, {"size": "3"}, {"size": "64"}, {"size": "128"}]}}}, "dtype": {"type": "DT_FLOAT"}}}, {"name": "model_101/tf.math.add_205/Add/y", "op": "Const", "attr": {"value": {"tensor": {"dtype": "DT_FLOAT", "tensorShape": {"dim": [{"size": "128"}]}}}, "dtype": {"type": "DT_FLOAT"}}}, {"name": "model_101/tf.nn.convolution_174/convolution/filter", "op": "Const", "attr": {"value": {"tensor": {"dtype": "DT_FLOAT", "tensorShape": {"dim": [{"size": "1"}, {"size": "1"}, {"size": "128"}, {"size": "128"}]}}}, "dtype": {"type": "DT_FLOAT"}}}, {"name": "model_101/tf.math.add_206/Add/y", "op": "Const", "attr": {"dtype": {"type": "DT_FLOAT"}, "value": {"tensor": {"dtype": "DT_FLOAT", "tensorShape": {"dim": [{"size": "128"}]}}}}}, {"name": "model_101/tf.strided_slice_45/ones_like/tensor", "op": "Const", "attr": {"dtype": {"type": "DT_INT64"}, "value": {"tensor": {"dtype": "DT_INT64", "tensorShape": {"dim": [{"size": "4"}]}}}}}, {"name": "model_101/tf.strided_slice_45/StridedSlice/end", "op": "Const", "attr": {"dtype": {"type": "DT_INT64"}, "value": {"tensor": {"dtype": "DT_INT64", "tensorShape": {"dim": [{"size": "4"}]}}}}}, {"name": "model_101/tf.strided_slice_45/ones_like", "op": "Const", "attr": {"dtype": {"type": "DT_INT64"}, "value": {"tensor": {"dtype": "DT_INT64", "tensorShape": {"dim": [{"size": "4"}]}}}}}, {"name": "model_101/tf.nn.convolution_175/convolution/filter", "op": "Const", "attr": {"value": {"tensor": {"dtype": "DT_FLOAT", "tensorShape": {"dim": [{"size": "3"}, {"size": "3"}, {"size": "64"}, {"size": "64"}]}}}, "dtype": {"type": "DT_FLOAT"}}}, {"name": "model_101/tf.math.add_207/Add/y", "op": "Const", "attr": {"value": {"tensor": {"dtype": "DT_FLOAT", "tensorShape": {"dim": [{"size": "64"}]}}}, "dtype": {"type": "DT_FLOAT"}}}, {"name": "model_101/tf.nn.convolution_176/convolution/filter", "op": "Const", "attr": {"value": {"tensor": {"dtype": "DT_FLOAT", "tensorShape": {"dim": [{"size": "3"}, {"size": "3"}, {"size": "64"}, {"size": "64"}]}}}, "dtype": {"type": "DT_FLOAT"}}}, {"name": "model_101/tf.math.add_208/Add/y", "op": "Const", "attr": {"dtype": {"type": "DT_FLOAT"}, "value": {"tensor": {"dtype": "DT_FLOAT", "tensorShape": {"dim": [{"size": "64"}]}}}}}, {"name": "model_101/tf.nn.convolution_177/convolution/filter", "op": "Const", "attr": {"value": {"tensor": {"dtype": "DT_FLOAT", "tensorShape": {"dim": [{"size": "3"}, {"size": "3"}, {"size": "64"}, {"size": "64"}]}}}, "dtype": {"type": "DT_FLOAT"}}}, {"name": "model_101/tf.math.add_211/Add/y", "op": "Const", "attr": {"dtype": {"type": "DT_FLOAT"}, "value": {"tensor": {"dtype": "DT_FLOAT", "tensorShape": {"dim": [{"size": "64"}]}}}}}, {"name": "model_101/tf.nn.convolution_178/convolution/filter", "op": "Const", "attr": {"value": {"tensor": {"dtype": "DT_FLOAT", "tensorShape": {"dim": [{"size": "3"}, {"size": "3"}, {"size": "64"}, {"size": "64"}]}}}, "dtype": {"type": "DT_FLOAT"}}}, {"name": "model_101/tf.math.add_212/Add/y", "op": "Const", "attr": {"dtype": {"type": "DT_FLOAT"}, "value": {"tensor": {"dtype": "DT_FLOAT", "tensorShape": {"dim": [{"size": "64"}]}}}}}, {"name": "model_101/tf.concat_46/concat/axis", "op": "Const", "attr": {"dtype": {"type": "DT_INT32"}, "value": {"tensor": {"dtype": "DT_INT32", "tensorShape": {}}}}}, {"name": "model_101/tf.nn.convolution_179/convolution/filter", "op": "Const", "attr": {"dtype": {"type": "DT_FLOAT"}, "value": {"tensor": {"dtype": "DT_FLOAT", "tensorShape": {"dim": [{"size": "1"}, {"size": "1"}, {"size": "256"}, {"size": "128"}]}}}}}, {"name": "model_101/tf.math.add_215/Add/y", "op": "Const", "attr": {"value": {"tensor": {"dtype": "DT_FLOAT", "tensorShape": {"dim": [{"size": "128"}]}}}, "dtype": {"type": "DT_FLOAT"}}}, {"name": "model_101/tf.compat.v1.pad_18/Pad/paddings", "op": "Const", "attr": {"value": {"tensor": {"dtype": "DT_INT32", "tensorShape": {"dim": [{"size": "4"}, {"size": "2"}]}}}, "dtype": {"type": "DT_INT32"}}}, {"name": "model_101/tf.nn.convolution_180/convolution/filter", "op": "Const", "attr": {"dtype": {"type": "DT_FLOAT"}, "value": {"tensor": {"dtype": "DT_FLOAT", "tensorShape": {"dim": [{"size": "3"}, {"size": "3"}, {"size": "128"}, {"size": "256"}]}}}}}, {"name": "model_101/tf.math.add_216/Add/y", "op": "Const", "attr": {"dtype": {"type": "DT_FLOAT"}, "value": {"tensor": {"dtype": "DT_FLOAT", "tensorShape": {"dim": [{"size": "256"}]}}}}}, {"name": "model_101/tf.nn.convolution_181/convolution/filter", "op": "Const", "attr": {"value": {"tensor": {"dtype": "DT_FLOAT", "tensorShape": {"dim": [{"size": "1"}, {"size": "1"}, {"size": "256"}, {"size": "256"}]}}}, "dtype": {"type": "DT_FLOAT"}}}, {"name": "model_101/tf.math.add_217/Add/y", "op": "Const", "attr": {"dtype": {"type": "DT_FLOAT"}, "value": {"tensor": {"dtype": "DT_FLOAT", "tensorShape": {"dim": [{"size": "256"}]}}}}}, {"name": "model_101/tf.strided_slice_47/ones_like/tensor", "op": "Const", "attr": {"value": {"tensor": {"dtype": "DT_INT64", "tensorShape": {"dim": [{"size": "4"}]}}}, "dtype": {"type": "DT_INT64"}}}, {"name": "model_101/tf.strided_slice_47/StridedSlice/end", "op": "Const", "attr": {"value": {"tensor": {"dtype": "DT_INT64", "tensorShape": {"dim": [{"size": "4"}]}}}, "dtype": {"type": "DT_INT64"}}}, {"name": "model_101/tf.strided_slice_47/ones_like", "op": "Const", "attr": {"value": {"tensor": {"dtype": "DT_INT64", "tensorShape": {"dim": [{"size": "4"}]}}}, "dtype": {"type": "DT_INT64"}}}, {"name": "model_101/tf.nn.convolution_182/convolution/filter", "op": "Const", "attr": {"dtype": {"type": "DT_FLOAT"}, "value": {"tensor": {"dtype": "DT_FLOAT", "tensorShape": {"dim": [{"size": "3"}, {"size": "3"}, {"size": "128"}, {"size": "128"}]}}}}}, {"name": "model_101/tf.math.add_218/Add/y", "op": "Const", "attr": {"dtype": {"type": "DT_FLOAT"}, "value": {"tensor": {"dtype": "DT_FLOAT", "tensorShape": {"dim": [{"size": "128"}]}}}}}, {"name": "model_101/tf.nn.convolution_183/convolution/filter", "op": "Const", "attr": {"dtype": {"type": "DT_FLOAT"}, "value": {"tensor": {"dtype": "DT_FLOAT", "tensorShape": {"dim": [{"size": "3"}, {"size": "3"}, {"size": "128"}, {"size": "128"}]}}}}}, {"name": "model_101/tf.math.add_219/Add/y", "op": "Const", "attr": {"dtype": {"type": "DT_FLOAT"}, "value": {"tensor": {"dtype": "DT_FLOAT", "tensorShape": {"dim": [{"size": "128"}]}}}}}, {"name": "model_101/tf.concat_47/concat/axis", "op": "Const", "attr": {"value": {"tensor": {"dtype": "DT_INT32", "tensorShape": {}}}, "dtype": {"type": "DT_INT32"}}}, {"name": "model_101/tf.nn.convolution_184/convolution/filter", "op": "Const", "attr": {"value": {"tensor": {"dtype": "DT_FLOAT", "tensorShape": {"dim": [{"size": "1"}, {"size": "1"}, {"size": "384"}, {"size": "256"}]}}}, "dtype": {"type": "DT_FLOAT"}}}, {"name": "model_101/tf.math.add_222/Add/y", "op": "Const", "attr": {"dtype": {"type": "DT_FLOAT"}, "value": {"tensor": {"dtype": "DT_FLOAT", "tensorShape": {"dim": [{"size": "256"}]}}}}}, {"name": "model_101/tf.nn.convolution_185/convolution/filter", "op": "Const", "attr": {"value": {"tensor": {"dtype": "DT_FLOAT", "tensorShape": {"dim": [{"size": "1"}, {"size": "1"}, {"size": "256"}, {"size": "128"}]}}}, "dtype": {"type": "DT_FLOAT"}}}, {"name": "model_101/tf.math.add_223/Add/y", "op": "Const", "attr": {"value": {"tensor": {"dtype": "DT_FLOAT", "tensorShape": {"dim": [{"size": "128"}]}}}, "dtype": {"type": "DT_FLOAT"}}}, {"name": "model_101/tf.concat_48/concat/axis", "op": "Const", "attr": {"value": {"tensor": {"dtype": "DT_INT32", "tensorShape": {}}}, "dtype": {"type": "DT_INT32"}}}, {"name": "model_101/tf.nn.convolution_186/convolution/filter", "op": "Const", "attr": {"value": {"tensor": {"dtype": "DT_FLOAT", "tensorShape": {"dim": [{"size": "1"}, {"size": "1"}, {"size": "512"}, {"size": "256"}]}}}, "dtype": {"type": "DT_FLOAT"}}}, {"name": "model_101/tf.math.add_224/Add/y", "op": "Const", "attr": {"value": {"tensor": {"dtype": "DT_FLOAT", "tensorShape": {"dim": [{"size": "256"}]}}}, "dtype": {"type": "DT_FLOAT"}}}, {"name": "model_101/tf.concat_56/concat/axis", "op": "Const", "attr": {"dtype": {"type": "DT_INT32"}, "value": {"tensor": {"dtype": "DT_INT32", "tensorShape": {}}}}}, {"name": "model_101/tf.nn.convolution_215/convolution/filter", "op": "Const", "attr": {"dtype": {"type": "DT_FLOAT"}, "value": {"tensor": {"dtype": "DT_FLOAT", "tensorShape": {"dim": [{"size": "1"}, {"size": "1"}, {"size": "384"}, {"size": "256"}]}}}}}, {"name": "model_101/tf.math.add_253/Add/y", "op": "Const", "attr": {"value": {"tensor": {"dtype": "DT_FLOAT", "tensorShape": {"dim": [{"size": "256"}]}}}, "dtype": {"type": "DT_FLOAT"}}}, {"name": "model_101/tf.strided_slice_55/ones_like/tensor", "op": "Const", "attr": {"value": {"tensor": {"dtype": "DT_INT64", "tensorShape": {"dim": [{"size": "4"}]}}}, "dtype": {"type": "DT_INT64"}}}, {"name": "model_101/tf.strided_slice_55/StridedSlice/end", "op": "Const", "attr": {"dtype": {"type": "DT_INT64"}, "value": {"tensor": {"dtype": "DT_INT64", "tensorShape": {"dim": [{"size": "4"}]}}}}}, {"name": "model_101/tf.strided_slice_55/ones_like", "op": "Const", "attr": {"dtype": {"type": "DT_INT64"}, "value": {"tensor": {"dtype": "DT_INT64", "tensorShape": {"dim": [{"size": "4"}]}}}}}, {"name": "model_101/tf.nn.convolution_218/convolution/filter", "op": "Const", "attr": {"dtype": {"type": "DT_FLOAT"}, "value": {"tensor": {"dtype": "DT_FLOAT", "tensorShape": {"dim": [{"size": "3"}, {"size": "3"}, {"size": "128"}, {"size": "128"}]}}}}}, {"name": "model_101/tf.math.add_256/Add/y", "op": "Const", "attr": {"value": {"tensor": {"dtype": "DT_FLOAT", "tensorShape": {"dim": [{"size": "128"}]}}}, "dtype": {"type": "DT_FLOAT"}}}, {"name": "model_101/tf.nn.convolution_219/convolution/filter", "op": "Const", "attr": {"dtype": {"type": "DT_FLOAT"}, "value": {"tensor": {"dtype": "DT_FLOAT", "tensorShape": {"dim": [{"size": "3"}, {"size": "3"}, {"size": "128"}, {"size": "128"}]}}}}}, {"name": "model_101/tf.math.add_257/Add/y", "op": "Const", "attr": {"value": {"tensor": {"dtype": "DT_FLOAT", "tensorShape": {"dim": [{"size": "128"}]}}}, "dtype": {"type": "DT_FLOAT"}}}, {"name": "model_101/tf.concat_58/concat/axis", "op": "Const", "attr": {"dtype": {"type": "DT_INT32"}, "value": {"tensor": {"dtype": "DT_INT32", "tensorShape": {}}}}}, {"name": "model_101/tf.nn.convolution_220/convolution/filter", "op": "Const", "attr": {"value": {"tensor": {"dtype": "DT_FLOAT", "tensorShape": {"dim": [{"size": "1"}, {"size": "1"}, {"size": "384"}, {"size": "256"}]}}}, "dtype": {"type": "DT_FLOAT"}}}, {"name": "model_101/tf.math.add_258/Add/y", "op": "Const", "attr": {"value": {"tensor": {"dtype": "DT_FLOAT", "tensorShape": {"dim": [{"size": "256"}]}}}, "dtype": {"type": "DT_FLOAT"}}}, {"name": "model_101/tf.nn.convolution_222/convolution/filter", "op": "Const", "attr": {"value": {"tensor": {"dtype": "DT_FLOAT", "tensorShape": {"dim": [{"size": "3"}, {"size": "3"}, {"size": "256"}, {"size": "100"}]}}}, "dtype": {"type": "DT_FLOAT"}}}, {"name": "model_101/tf.math.add_260/Add/y", "op": "Const", "attr": {"value": {"tensor": {"dtype": "DT_FLOAT", "tensorShape": {"dim": [{"size": "100"}]}}}, "dtype": {"type": "DT_FLOAT"}}}, {"name": "model_101/tf.nn.convolution_224/convolution/filter", "op": "Const", "attr": {"value": {"tensor": {"dtype": "DT_FLOAT", "tensorShape": {"dim": [{"size": "3"}, {"size": "3"}, {"size": "100"}, {"size": "100"}]}}}, "dtype": {"type": "DT_FLOAT"}}}, {"name": "model_101/tf.math.add_262/Add/y", "op": "Const", "attr": {"value": {"tensor": {"dtype": "DT_FLOAT", "tensorShape": {"dim": [{"size": "100"}]}}}, "dtype": {"type": "DT_FLOAT"}}}, {"name": "model_101/tf.nn.convolution_226/convolution/filter", "op": "Const", "attr": {"dtype": {"type": "DT_FLOAT"}, "value": {"tensor": {"dtype": "DT_FLOAT", "tensorShape": {"dim": [{"size": "1"}, {"size": "1"}, {"size": "100"}, {"size": "601"}]}}}}}, {"name": "model_101/tf.math.add_264/Add/y", "op": "Const", "attr": {"value": {"tensor": {"dtype": "DT_FLOAT", "tensorShape": {"dim": [{"size": "601"}]}}}, "dtype": {"type": "DT_FLOAT"}}}, {"name": "model_101/tf.concat_59/concat/axis", "op": "Const", "attr": {"value": {"tensor": {"dtype": "DT_INT32", "tensorShape": {}}}, "dtype": {"type": "DT_INT32"}}}, {"name": "model_101/tf.compat.v1.transpose_134/transpose/perm", "op": "Const", "attr": {"dtype": {"type": "DT_INT32"}, "value": {"tensor": {"dtype": "DT_INT32", "tensorShape": {"dim": [{"size": "4"}]}}}}}, {"name": "model_101/tf.reshape_38/Reshape/shape", "op": "Const", "attr": {"dtype": {"type": "DT_INT32"}, "value": {"tensor": {"dtype": "DT_INT32", "tensorShape": {"dim": [{"size": "3"}]}}}}}, {"name": "model_101/tf.concat_60/concat/axis", "op": "Const", "attr": {"dtype": {"type": "DT_INT32"}, "value": {"tensor": {"dtype": "DT_INT32", "tensorShape": {}}}}}, {"name": "model_101/tf.strided_slice_57/StridedSlice/begin", "op": "Const", "attr": {"value": {"tensor": {"dtype": "DT_INT64", "tensorShape": {"dim": [{"size": "3"}]}}}, "dtype": {"type": "DT_INT64"}}}, {"name": "model_101/tf.strided_slice_57/StridedSlice/end", "op": "Const", "attr": {"dtype": {"type": "DT_INT64"}, "value": {"tensor": {"dtype": "DT_INT64", "tensorShape": {"dim": [{"size": "3"}]}}}}}, {"name": "model_101/tf.strided_slice_57/StridedSlice/strides", "op": "Const", "attr": {"dtype": {"type": "DT_INT64"}, "value": {"tensor": {"dtype": "DT_INT64", "tensorShape": {"dim": [{"size": "3"}]}}}}}, {"name": "model_101/output0/concat/axis", "op": "Const", "attr": {"value": {"tensor": {"dtype": "DT_INT32", "tensorShape": {}}}, "dtype": {"type": "DT_INT32"}}}, {"name": "x", "op": "Placeholder", "attr": {"dtype": {"type": "DT_FLOAT"}, "shape": {"shape": {"dim": [{"size": "1"}, {"size": "256"}, {"size": "256"}, {"size": "3"}]}}}}, {"name": "model_101/tf.compat.v1.pad_14/Pad", "op": "Pad", "input": ["x", "model_101/tf.compat.v1.pad_14/Pad/paddings"], "attr": {"Tpaddings": {"type": "DT_INT32"}, "T": {"type": "DT_FLOAT"}}}, {"name": "model_101/tf.math.add_178/Add", "op": "_FusedConv2D", "input": ["model_101/tf.compat.v1.pad_14/Pad", "model_101/tf.nn.convolution_152/convolution/filter", "model_101/tf.math.add_178/Add/y"], "device": "/device:CPU:0", "attr": {"num_host_args": {"i": "0"}, "T": {"type": "DT_FLOAT"}, "TArgs": {"list": {"type": ["DT_FLOAT"]}}, "num_args": {"i": "1"}, "leakyrelu_alpha": {"f": 0.2}, "use_cudnn_on_gpu": {"b": true}, "epsilon": {"f": 0.0}, "padding": {"s": "VkFMSUQ="}, "fused_ops": {"list": {"s": ["Qmlhc0FkZA=="]}}, "dilations": {"list": {"i": ["1", "1", "1", "1"]}}, "data_format": {"s": "TkhXQw=="}, "strides": {"list": {"i": ["1", "2", "2", "1"]}}, "filter_format": {"s": "SFdJTw=="}, "explicit_paddings": {"list": {}}}}, {"name": "model_101/tf.math.sigmoid_116/Sigmoid", "op": "Sigmoid", "input": ["model_101/tf.math.add_178/Add"], "attr": {"T": {"type": "DT_FLOAT"}}}, {"name": "model_101/tf.math.multiply_509/Mul", "op": "Mul", "input": ["model_101/tf.math.add_178/Add", "model_101/tf.math.sigmoid_116/Sigmoid"], "attr": {"T": {"type": "DT_FLOAT"}}}, {"name": "model_101/tf.compat.v1.pad_15/Pad", "op": "Pad", "input": ["model_101/tf.math.multiply_509/Mul", "model_101/tf.compat.v1.pad_15/Pad/paddings"], "attr": {"T": {"type": "DT_FLOAT"}, "Tpaddings": {"type": "DT_INT32"}}}, {"name": "model_101/tf.math.add_179/Add", "op": "_FusedConv2D", "input": ["model_101/tf.compat.v1.pad_15/Pad", "model_101/tf.nn.convolution_153/convolution/filter", "model_101/tf.math.add_179/Add/y"], "device": "/device:CPU:0", "attr": {"use_cudnn_on_gpu": {"b": true}, "TArgs": {"list": {"type": ["DT_FLOAT"]}}, "padding": {"s": "VkFMSUQ="}, "leakyrelu_alpha": {"f": 0.2}, "data_format": {"s": "TkhXQw=="}, "T": {"type": "DT_FLOAT"}, "epsilon": {"f": 0.0}, "dilations": {"list": {"i": ["1", "1", "1", "1"]}}, "strides": {"list": {"i": ["1", "2", "2", "1"]}}, "num_host_args": {"i": "0"}, "filter_format": {"s": "SFdJTw=="}, "fused_ops": {"list": {"s": ["Qmlhc0FkZA=="]}}, "num_args": {"i": "1"}, "explicit_paddings": {"list": {}}}}, {"name": "model_101/tf.math.sigmoid_117/Sigmoid", "op": "Sigmoid", "input": ["model_101/tf.math.add_179/Add"], "attr": {"T": {"type": "DT_FLOAT"}}}, {"name": "model_101/tf.math.multiply_513/Mul", "op": "Mul", "input": ["model_101/tf.math.add_179/Add", "model_101/tf.math.sigmoid_117/Sigmoid"], "attr": {"T": {"type": "DT_FLOAT"}}}, {"name": "model_101/tf.math.add_180/Add", "op": "_FusedConv2D", "input": ["model_101/tf.math.multiply_513/Mul", "model_101/tf.nn.convolution_154/convolution/filter", "model_101/tf.math.add_180/Add/y"], "device": "/device:CPU:0", "attr": {"use_cudnn_on_gpu": {"b": true}, "data_format": {"s": "TkhXQw=="}, "leakyrelu_alpha": {"f": 0.2}, "filter_format": {"s": "SFdJTw=="}, "explicit_paddings": {"list": {}}, "num_args": {"i": "1"}, "strides": {"list": {"i": ["1", "1", "1", "1"]}}, "TArgs": {"list": {"type": ["DT_FLOAT"]}}, "epsilon": {"f": 0.0}, "padding": {"s": "U0FNRQ=="}, "dilations": {"list": {"i": ["1", "1", "1", "1"]}}, "T": {"type": "DT_FLOAT"}, "num_host_args": {"i": "0"}, "fused_ops": {"list": {"s": ["Qmlhc0FkZA=="]}}}}, {"name": "model_101/tf.math.sigmoid_118/Sigmoid", "op": "Sigmoid", "input": ["model_101/tf.math.add_180/Add"], "attr": {"T": {"type": "DT_FLOAT"}}}, {"name": "model_101/tf.math.multiply_517/Mul", "op": "Mul", "input": ["model_101/tf.math.add_180/Add", "model_101/tf.math.sigmoid_118/Sigmoid"], "attr": {"T": {"type": "DT_FLOAT"}}}, {"name": "model_101/tf.strided_slice_40/StridedSlice", "op": "StridedSlice", "input": ["model_101/tf.math.multiply_517/Mul", "model_101/tf.strided_slice_40/ones_like/tensor", "model_101/tf.strided_slice_40/StridedSlice/end", "model_101/tf.strided_slice_40/ones_like"], "attr": {"shrink_axis_mask": {"i": "0"}, "ellipsis_mask": {"i": "0"}, "begin_mask": {"i": "15"}, "new_axis_mask": {"i": "0"}, "T": {"type": "DT_FLOAT"}, "end_mask": {"i": "7"}, "Index": {"type": "DT_INT64"}}}, {"name": "model_101/tf.strided_slice_41/StridedSlice", "op": "StridedSlice", "input": ["model_101/tf.math.multiply_517/Mul", "model_101/tf.strided_slice_41/ones_like/tensor", "model_101/tf.strided_slice_41/StridedSlice/end", "model_101/tf.strided_slice_41/ones_like"], "attr": {"T": {"type": "DT_FLOAT"}, "end_mask": {"i": "7"}, "ellipsis_mask": {"i": "0"}, "begin_mask": {"i": "7"}, "Index": {"type": "DT_INT64"}, "shrink_axis_mask": {"i": "0"}, "new_axis_mask": {"i": "0"}}}, {"name": "model_101/tf.math.add_181/Add", "op": "_FusedConv2D", "input": ["model_101/tf.strided_slice_41/StridedSlice", "model_101/tf.nn.convolution_155/convolution/filter", "model_101/tf.math.add_181/Add/y"], "device": "/device:CPU:0", "attr": {"num_host_args": {"i": "0"}, "dilations": {"list": {"i": ["1", "1", "1", "1"]}}, "explicit_paddings": {"list": {}}, "leakyrelu_alpha": {"f": 0.2}, "fused_ops": {"list": {"s": ["Qmlhc0FkZA=="]}}, "strides": {"list": {"i": ["1", "1", "1", "1"]}}, "TArgs": {"list": {"type": ["DT_FLOAT"]}}, "num_args": {"i": "1"}, "epsilon": {"f": 0.0}, "filter_format": {"s": "SFdJTw=="}, "T": {"type": "DT_FLOAT"}, "data_format": {"s": "TkhXQw=="}, "use_cudnn_on_gpu": {"b": true}, "padding": {"s": "U0FNRQ=="}}}, {"name": "model_101/tf.math.sigmoid_119/Sigmoid", "op": "Sigmoid", "input": ["model_101/tf.math.add_181/Add"], "attr": {"T": {"type": "DT_FLOAT"}}}, {"name": "model_101/tf.math.multiply_521/Mul", "op": "Mul", "input": ["model_101/tf.math.add_181/Add", "model_101/tf.math.sigmoid_119/Sigmoid"], "attr": {"T": {"type": "DT_FLOAT"}}}, {"name": "model_101/tf.math.add_182/Add", "op": "_FusedConv2D", "input": ["model_101/tf.math.multiply_521/Mul", "model_101/tf.nn.convolution_156/convolution/filter", "model_101/tf.math.add_182/Add/y"], "device": "/device:CPU:0", "attr": {"num_host_args": {"i": "0"}, "data_format": {"s": "TkhXQw=="}, "T": {"type": "DT_FLOAT"}, "num_args": {"i": "1"}, "filter_format": {"s": "SFdJTw=="}, "strides": {"list": {"i": ["1", "1", "1", "1"]}}, "use_cudnn_on_gpu": {"b": true}, "epsilon": {"f": 0.0}, "fused_ops": {"list": {"s": ["Qmlhc0FkZA=="]}}, "leakyrelu_alpha": {"f": 0.2}, "TArgs": {"list": {"type": ["DT_FLOAT"]}}, "padding": {"s": "U0FNRQ=="}, "explicit_paddings": {"list": {}}, "dilations": {"list": {"i": ["1", "1", "1", "1"]}}}}, {"name": "model_101/tf.math.sigmoid_120/Sigmoid", "op": "Sigmoid", "input": ["model_101/tf.math.add_182/Add"], "attr": {"T": {"type": "DT_FLOAT"}}}, {"name": "model_101/tf.math.multiply_525/Mul", "op": "Mul", "input": ["model_101/tf.math.add_182/Add", "model_101/tf.math.sigmoid_120/Sigmoid"], "attr": {"T": {"type": "DT_FLOAT"}}}, {"name": "model_101/tf.math.add_184/Add", "op": "AddV2", "input": ["model_101/tf.strided_slice_41/StridedSlice", "model_101/tf.math.multiply_525/Mul"], "attr": {"T": {"type": "DT_FLOAT"}}}, {"name": "model_101/tf.concat_44/concat", "op": "ConcatV2", "input": ["model_101/tf.strided_slice_40/StridedSlice", "model_101/tf.strided_slice_41/StridedSlice", "model_101/tf.math.add_184/Add", "model_101/tf.concat_44/concat/axis"], "attr": {"Tidx": {"type": "DT_INT32"}, "T": {"type": "DT_FLOAT"}, "N": {"i": "3"}}}, {"name": "model_101/tf.math.add_185/Add", "op": "_FusedConv2D", "input": ["model_101/tf.concat_44/concat", "model_101/tf.nn.convolution_157/convolution/filter", "model_101/tf.math.add_185/Add/y"], "device": "/device:CPU:0", "attr": {"epsilon": {"f": 0.0}, "num_args": {"i": "1"}, "strides": {"list": {"i": ["1", "1", "1", "1"]}}, "num_host_args": {"i": "0"}, "data_format": {"s": "TkhXQw=="}, "fused_ops": {"list": {"s": ["Qmlhc0FkZA=="]}}, "dilations": {"list": {"i": ["1", "1", "1", "1"]}}, "TArgs": {"list": {"type": ["DT_FLOAT"]}}, "filter_format": {"s": "SFdJTw=="}, "leakyrelu_alpha": {"f": 0.2}, "use_cudnn_on_gpu": {"b": true}, "explicit_paddings": {"list": {}}, "T": {"type": "DT_FLOAT"}, "padding": {"s": "U0FNRQ=="}}}, {"name": "model_101/tf.math.sigmoid_121/Sigmoid", "op": "Sigmoid", "input": ["model_101/tf.math.add_185/Add"], "attr": {"T": {"type": "DT_FLOAT"}}}, {"name": "model_101/tf.math.multiply_531/Mul", "op": "Mul", "input": ["model_101/tf.math.add_185/Add", "model_101/tf.math.sigmoid_121/Sigmoid"], "attr": {"T": {"type": "DT_FLOAT"}}}, {"name": "model_101/tf.compat.v1.pad_16/Pad", "op": "Pad", "input": ["model_101/tf.math.multiply_531/Mul", "model_101/tf.compat.v1.pad_16/Pad/paddings"], "attr": {"Tpaddings": {"type": "DT_INT32"}, "T": {"type": "DT_FLOAT"}}}, {"name": "model_101/tf.math.add_186/Add", "op": "_FusedConv2D", "input": ["model_101/tf.compat.v1.pad_16/Pad", "model_101/tf.nn.convolution_158/convolution/filter", "model_101/tf.math.add_186/Add/y"], "device": "/device:CPU:0", "attr": {"num_host_args": {"i": "0"}, "explicit_paddings": {"list": {}}, "fused_ops": {"list": {"s": ["Qmlhc0FkZA=="]}}, "dilations": {"list": {"i": ["1", "1", "1", "1"]}}, "epsilon": {"f": 0.0}, "strides": {"list": {"i": ["1", "2", "2", "1"]}}, "TArgs": {"list": {"type": ["DT_FLOAT"]}}, "data_format": {"s": "TkhXQw=="}, "filter_format": {"s": "SFdJTw=="}, "num_args": {"i": "1"}, "leakyrelu_alpha": {"f": 0.2}, "use_cudnn_on_gpu": {"b": true}, "padding": {"s": "VkFMSUQ="}, "T": {"type": "DT_FLOAT"}}}, {"name": "model_101/tf.math.sigmoid_122/Sigmoid", "op": "Sigmoid", "input": ["model_101/tf.math.add_186/Add"], "attr": {"T": {"type": "DT_FLOAT"}}}, {"name": "model_101/tf.math.multiply_535/Mul", "op": "Mul", "input": ["model_101/tf.math.add_186/Add", "model_101/tf.math.sigmoid_122/Sigmoid"], "attr": {"T": {"type": "DT_FLOAT"}}}, {"name": "model_101/tf.math.add_187/Add", "op": "_FusedConv2D", "input": ["model_101/tf.math.multiply_535/Mul", "model_101/tf.nn.convolution_159/convolution/filter", "model_101/tf.math.add_187/Add/y"], "device": "/device:CPU:0", "attr": {"num_args": {"i": "1"}, "epsilon": {"f": 0.0}, "filter_format": {"s": "SFdJTw=="}, "TArgs": {"list": {"type": ["DT_FLOAT"]}}, "leakyrelu_alpha": {"f": 0.2}, "num_host_args": {"i": "0"}, "strides": {"list": {"i": ["1", "1", "1", "1"]}}, "fused_ops": {"list": {"s": ["Qmlhc0FkZA=="]}}, "padding": {"s": "U0FNRQ=="}, "dilations": {"list": {"i": ["1", "1", "1", "1"]}}, "T": {"type": "DT_FLOAT"}, "explicit_paddings": {"list": {}}, "use_cudnn_on_gpu": {"b": true}, "data_format": {"s": "TkhXQw=="}}}, {"name": "model_101/tf.math.sigmoid_123/Sigmoid", "op": "Sigmoid", "input": ["model_101/tf.math.add_187/Add"], "attr": {"T": {"type": "DT_FLOAT"}}}, {"name": "model_101/tf.math.multiply_539/Mul", "op": "Mul", "input": ["model_101/tf.math.add_187/Add", "model_101/tf.math.sigmoid_123/Sigmoid"], "attr": {"T": {"type": "DT_FLOAT"}}}, {"name": "model_101/tf.strided_slice_42/StridedSlice", "op": "StridedSlice", "input": ["model_101/tf.math.multiply_539/Mul", "model_101/tf.strided_slice_42/ones_like/tensor", "model_101/tf.strided_slice_42/StridedSlice/end", "model_101/tf.strided_slice_42/ones_like"], "attr": {"T": {"type": "DT_FLOAT"}, "end_mask": {"i": "7"}, "ellipsis_mask": {"i": "0"}, "begin_mask": {"i": "15"}, "new_axis_mask": {"i": "0"}, "Index": {"type": "DT_INT64"}, "shrink_axis_mask": {"i": "0"}}}, {"name": "model_101/tf.strided_slice_43/StridedSlice", "op": "StridedSlice", "input": ["model_101/tf.math.multiply_539/Mul", "model_101/tf.strided_slice_43/ones_like/tensor", "model_101/tf.strided_slice_43/StridedSlice/end", "model_101/tf.strided_slice_43/ones_like"], "attr": {"T": {"type": "DT_FLOAT"}, "end_mask": {"i": "7"}, "Index": {"type": "DT_INT64"}, "begin_mask": {"i": "7"}, "shrink_axis_mask": {"i": "0"}, "ellipsis_mask": {"i": "0"}, "new_axis_mask": {"i": "0"}}}, {"name": "model_101/tf.math.add_190/Add", "op": "_FusedConv2D", "input": ["model_101/tf.strided_slice_43/StridedSlice", "model_101/tf.nn.convolution_162/convolution/filter", "model_101/tf.math.add_190/Add/y"], "device": "/device:CPU:0", "attr": {"num_host_args": {"i": "0"}, "epsilon": {"f": 0.0}, "padding": {"s": "U0FNRQ=="}, "fused_ops": {"list": {"s": ["Qmlhc0FkZA=="]}}, "T": {"type": "DT_FLOAT"}, "TArgs": {"list": {"type": ["DT_FLOAT"]}}, "data_format": {"s": "TkhXQw=="}, "filter_format": {"s": "SFdJTw=="}, "leakyrelu_alpha": {"f": 0.2}, "explicit_paddings": {"list": {}}, "dilations": {"list": {"i": ["1", "1", "1", "1"]}}, "use_cudnn_on_gpu": {"b": true}, "num_args": {"i": "1"}, "strides": {"list": {"i": ["1", "1", "1", "1"]}}}}, {"name": "model_101/tf.math.sigmoid_124/Sigmoid", "op": "Sigmoid", "input": ["model_101/tf.math.add_190/Add"], "attr": {"T": {"type": "DT_FLOAT"}}}, {"name": "model_101/tf.math.multiply_543/Mul", "op": "Mul", "input": ["model_101/tf.math.add_190/Add", "model_101/tf.math.sigmoid_124/Sigmoid"], "attr": {"T": {"type": "DT_FLOAT"}}}, {"name": "model_101/tf.math.add_193/Add", "op": "_FusedConv2D", "input": ["model_101/tf.math.multiply_543/Mul", "model_101/tf.nn.convolution_165/convolution/filter", "model_101/tf.math.add_193/Add/y"], "device": "/device:CPU:0", "attr": {"num_args": {"i": "1"}, "TArgs": {"list": {"type": ["DT_FLOAT"]}}, "strides": {"list": {"i": ["1", "1", "1", "1"]}}, "filter_format": {"s": "SFdJTw=="}, "leakyrelu_alpha": {"f": 0.2}, "T": {"type": "DT_FLOAT"}, "num_host_args": {"i": "0"}, "epsilon": {"f": 0.0}, "padding": {"s": "U0FNRQ=="}, "fused_ops": {"list": {"s": ["Qmlhc0FkZA=="]}}, "dilations": {"list": {"i": ["1", "1", "1", "1"]}}, "explicit_paddings": {"list": {}}, "use_cudnn_on_gpu": {"b": true}, "data_format": {"s": "TkhXQw=="}}}, {"name": "model_101/tf.math.sigmoid_125/Sigmoid", "op": "Sigmoid", "input": ["model_101/tf.math.add_193/Add"], "attr": {"T": {"type": "DT_FLOAT"}}}, {"name": "model_101/tf.math.multiply_547/Mul", "op": "Mul", "input": ["model_101/tf.math.add_193/Add", "model_101/tf.math.sigmoid_125/Sigmoid"], "attr": {"T": {"type": "DT_FLOAT"}}}, {"name": "model_101/tf.math.add_195/Add", "op": "AddV2", "input": ["model_101/tf.strided_slice_43/StridedSlice", "model_101/tf.math.multiply_547/Mul"], "attr": {"T": {"type": "DT_FLOAT"}}}, {"name": "model_101/tf.math.add_198/Add", "op": "_FusedConv2D", "input": ["model_101/tf.math.add_195/Add", "model_101/tf.nn.convolution_168/convolution/filter", "model_101/tf.math.add_198/Add/y"], "device": "/device:CPU:0", "attr": {"num_args": {"i": "1"}, "dilations": {"list": {"i": ["1", "1", "1", "1"]}}, "epsilon": {"f": 0.0}, "use_cudnn_on_gpu": {"b": true}, "num_host_args": {"i": "0"}, "leakyrelu_alpha": {"f": 0.2}, "data_format": {"s": "TkhXQw=="}, "strides": {"list": {"i": ["1", "1", "1", "1"]}}, "fused_ops": {"list": {"s": ["Qmlhc0FkZA=="]}}, "explicit_paddings": {"list": {}}, "TArgs": {"list": {"type": ["DT_FLOAT"]}}, "padding": {"s": "U0FNRQ=="}, "filter_format": {"s": "SFdJTw=="}, "T": {"type": "DT_FLOAT"}}}, {"name": "model_101/tf.math.sigmoid_126/Sigmoid", "op": "Sigmoid", "input": ["model_101/tf.math.add_198/Add"], "attr": {"T": {"type": "DT_FLOAT"}}}, {"name": "model_101/tf.math.multiply_553/Mul", "op": "Mul", "input": ["model_101/tf.math.add_198/Add", "model_101/tf.math.sigmoid_126/Sigmoid"], "attr": {"T": {"type": "DT_FLOAT"}}}, {"name": "model_101/tf.math.add_201/Add", "op": "_FusedConv2D", "input": ["model_101/tf.math.multiply_553/Mul", "model_101/tf.nn.convolution_171/convolution/filter", "model_101/tf.math.add_201/Add/y"], "device": "/device:CPU:0", "attr": {"fused_ops": {"list": {"s": ["Qmlhc0FkZA=="]}}, "leakyrelu_alpha": {"f": 0.2}, "T": {"type": "DT_FLOAT"}, "TArgs": {"list": {"type": ["DT_FLOAT"]}}, "num_host_args": {"i": "0"}, "epsilon": {"f": 0.0}, "padding": {"s": "U0FNRQ=="}, "dilations": {"list": {"i": ["1", "1", "1", "1"]}}, "num_args": {"i": "1"}, "strides": {"list": {"i": ["1", "1", "1", "1"]}}, "use_cudnn_on_gpu": {"b": true}, "explicit_paddings": {"list": {}}, "data_format": {"s": "TkhXQw=="}, "filter_format": {"s": "SFdJTw=="}}}, {"name": "model_101/tf.math.sigmoid_127/Sigmoid", "op": "Sigmoid", "input": ["model_101/tf.math.add_201/Add"], "attr": {"T": {"type": "DT_FLOAT"}}}, {"name": "model_101/tf.math.multiply_557/Mul", "op": "Mul", "input": ["model_101/tf.math.add_201/Add", "model_101/tf.math.sigmoid_127/Sigmoid"], "attr": {"T": {"type": "DT_FLOAT"}}}, {"name": "model_101/tf.math.add_203/Add", "op": "AddV2", "input": ["model_101/tf.math.add_195/Add", "model_101/tf.math.multiply_557/Mul"], "attr": {"T": {"type": "DT_FLOAT"}}}, {"name": "model_101/tf.concat_45/concat", "op": "ConcatV2", "input": ["model_101/tf.strided_slice_42/StridedSlice", "model_101/tf.strided_slice_43/StridedSlice", "model_101/tf.math.add_195/Add", "model_101/tf.math.add_203/Add", "model_101/tf.concat_45/concat/axis"], "attr": {"N": {"i": "4"}, "Tidx": {"type": "DT_INT32"}, "T": {"type": "DT_FLOAT"}}}, {"name": "model_101/tf.math.add_204/Add", "op": "_FusedConv2D", "input": ["model_101/tf.concat_45/concat", "model_101/tf.nn.convolution_172/convolution/filter", "model_101/tf.math.add_204/Add/y"], "device": "/device:CPU:0", "attr": {"explicit_paddings": {"list": {}}, "filter_format": {"s": "SFdJTw=="}, "num_host_args": {"i": "0"}, "data_format": {"s": "TkhXQw=="}, "padding": {"s": "U0FNRQ=="}, "T": {"type": "DT_FLOAT"}, "TArgs": {"list": {"type": ["DT_FLOAT"]}}, "epsilon": {"f": 0.0}, "fused_ops": {"list": {"s": ["Qmlhc0FkZA=="]}}, "leakyrelu_alpha": {"f": 0.2}, "use_cudnn_on_gpu": {"b": true}, "strides": {"list": {"i": ["1", "1", "1", "1"]}}, "num_args": {"i": "1"}, "dilations": {"list": {"i": ["1", "1", "1", "1"]}}}}, {"name": "model_101/tf.math.sigmoid_128/Sigmoid", "op": "Sigmoid", "input": ["model_101/tf.math.add_204/Add"], "attr": {"T": {"type": "DT_FLOAT"}}}, {"name": "model_101/tf.math.multiply_563/Mul", "op": "Mul", "input": ["model_101/tf.math.add_204/Add", "model_101/tf.math.sigmoid_128/Sigmoid"], "attr": {"T": {"type": "DT_FLOAT"}}}, {"name": "model_101/tf.compat.v1.pad_17/Pad", "op": "Pad", "input": ["model_101/tf.math.multiply_563/Mul", "model_101/tf.compat.v1.pad_17/Pad/paddings"], "attr": {"Tpaddings": {"type": "DT_INT32"}, "T": {"type": "DT_FLOAT"}}}, {"name": "model_101/tf.math.add_205/Add", "op": "_FusedConv2D", "input": ["model_101/tf.compat.v1.pad_17/Pad", "model_101/tf.nn.convolution_173/convolution/filter", "model_101/tf.math.add_205/Add/y"], "device": "/device:CPU:0", "attr": {"leakyrelu_alpha": {"f": 0.2}, "data_format": {"s": "TkhXQw=="}, "explicit_paddings": {"list": {}}, "dilations": {"list": {"i": ["1", "1", "1", "1"]}}, "padding": {"s": "VkFMSUQ="}, "num_host_args": {"i": "0"}, "TArgs": {"list": {"type": ["DT_FLOAT"]}}, "num_args": {"i": "1"}, "strides": {"list": {"i": ["1", "2", "2", "1"]}}, "T": {"type": "DT_FLOAT"}, "filter_format": {"s": "SFdJTw=="}, "fused_ops": {"list": {"s": ["Qmlhc0FkZA=="]}}, "use_cudnn_on_gpu": {"b": true}, "epsilon": {"f": 0.0}}}, {"name": "model_101/tf.math.sigmoid_129/Sigmoid", "op": "Sigmoid", "input": ["model_101/tf.math.add_205/Add"], "attr": {"T": {"type": "DT_FLOAT"}}}, {"name": "model_101/tf.math.multiply_567/Mul", "op": "Mul", "input": ["model_101/tf.math.add_205/Add", "model_101/tf.math.sigmoid_129/Sigmoid"], "attr": {"T": {"type": "DT_FLOAT"}}}, {"name": "model_101/tf.math.add_206/Add", "op": "_FusedConv2D", "input": ["model_101/tf.math.multiply_567/Mul", "model_101/tf.nn.convolution_174/convolution/filter", "model_101/tf.math.add_206/Add/y"], "device": "/device:CPU:0", "attr": {"num_host_args": {"i": "0"}, "leakyrelu_alpha": {"f": 0.2}, "padding": {"s": "U0FNRQ=="}, "TArgs": {"list": {"type": ["DT_FLOAT"]}}, "epsilon": {"f": 0.0}, "num_args": {"i": "1"}, "strides": {"list": {"i": ["1", "1", "1", "1"]}}, "filter_format": {"s": "SFdJTw=="}, "explicit_paddings": {"list": {}}, "dilations": {"list": {"i": ["1", "1", "1", "1"]}}, "data_format": {"s": "TkhXQw=="}, "use_cudnn_on_gpu": {"b": true}, "T": {"type": "DT_FLOAT"}, "fused_ops": {"list": {"s": ["Qmlhc0FkZA=="]}}}}, {"name": "model_101/tf.math.sigmoid_130/Sigmoid", "op": "Sigmoid", "input": ["model_101/tf.math.add_206/Add"], "attr": {"T": {"type": "DT_FLOAT"}}}, {"name": "model_101/tf.math.multiply_571/Mul", "op": "Mul", "input": ["model_101/tf.math.add_206/Add", "model_101/tf.math.sigmoid_130/Sigmoid"], "attr": {"T": {"type": "DT_FLOAT"}}}, {"name": "model_101/tf.strided_slice_44/StridedSlice", "op": "StridedSlice", "input": ["model_101/tf.math.multiply_571/Mul", "model_101/tf.strided_slice_44/ones_like/tensor", "model_101/tf.strided_slice_44/StridedSlice/end", "model_101/tf.strided_slice_44/ones_like"], "attr": {"end_mask": {"i": "7"}, "new_axis_mask": {"i": "0"}, "Index": {"type": "DT_INT64"}, "begin_mask": {"i": "15"}, "ellipsis_mask": {"i": "0"}, "shrink_axis_mask": {"i": "0"}, "T": {"type": "DT_FLOAT"}}}, {"name": "model_101/tf.strided_slice_45/StridedSlice", "op": "StridedSlice", "input": ["model_101/tf.math.multiply_571/Mul", "model_101/tf.strided_slice_45/ones_like/tensor", "model_101/tf.strided_slice_45/StridedSlice/end", "model_101/tf.strided_slice_45/ones_like"], "attr": {"end_mask": {"i": "7"}, "begin_mask": {"i": "7"}, "Index": {"type": "DT_INT64"}, "T": {"type": "DT_FLOAT"}, "ellipsis_mask": {"i": "0"}, "shrink_axis_mask": {"i": "0"}, "new_axis_mask": {"i": "0"}}}, {"name": "model_101/tf.math.add_207/Add", "op": "_FusedConv2D", "input": ["model_101/tf.strided_slice_45/StridedSlice", "model_101/tf.nn.convolution_175/convolution/filter", "model_101/tf.math.add_207/Add/y"], "device": "/device:CPU:0", "attr": {"data_format": {"s": "TkhXQw=="}, "explicit_paddings": {"list": {}}, "TArgs": {"list": {"type": ["DT_FLOAT"]}}, "num_host_args": {"i": "0"}, "strides": {"list": {"i": ["1", "1", "1", "1"]}}, "use_cudnn_on_gpu": {"b": true}, "T": {"type": "DT_FLOAT"}, "fused_ops": {"list": {"s": ["Qmlhc0FkZA=="]}}, "padding": {"s": "U0FNRQ=="}, "dilations": {"list": {"i": ["1", "1", "1", "1"]}}, "epsilon": {"f": 0.0}, "filter_format": {"s": "SFdJTw=="}, "leakyrelu_alpha": {"f": 0.2}, "num_args": {"i": "1"}}}, {"name": "model_101/tf.math.sigmoid_131/Sigmoid", "op": "Sigmoid", "input": ["model_101/tf.math.add_207/Add"], "attr": {"T": {"type": "DT_FLOAT"}}}, {"name": "model_101/tf.math.multiply_575/Mul", "op": "Mul", "input": ["model_101/tf.math.add_207/Add", "model_101/tf.math.sigmoid_131/Sigmoid"], "attr": {"T": {"type": "DT_FLOAT"}}}, {"name": "model_101/tf.math.add_208/Add", "op": "_FusedConv2D", "input": ["model_101/tf.math.multiply_575/Mul", "model_101/tf.nn.convolution_176/convolution/filter", "model_101/tf.math.add_208/Add/y"], "device": "/device:CPU:0", "attr": {"use_cudnn_on_gpu": {"b": true}, "fused_ops": {"list": {"s": ["Qmlhc0FkZA=="]}}, "dilations": {"list": {"i": ["1", "1", "1", "1"]}}, "epsilon": {"f": 0.0}, "data_format": {"s": "TkhXQw=="}, "leakyrelu_alpha": {"f": 0.2}, "filter_format": {"s": "SFdJTw=="}, "strides": {"list": {"i": ["1", "1", "1", "1"]}}, "explicit_paddings": {"list": {}}, "num_host_args": {"i": "0"}, "padding": {"s": "U0FNRQ=="}, "TArgs": {"list": {"type": ["DT_FLOAT"]}}, "T": {"type": "DT_FLOAT"}, "num_args": {"i": "1"}}}, {"name": "model_101/tf.math.sigmoid_132/Sigmoid", "op": "Sigmoid", "input": ["model_101/tf.math.add_208/Add"], "attr": {"T": {"type": "DT_FLOAT"}}}, {"name": "model_101/tf.math.multiply_579/Mul", "op": "Mul", "input": ["model_101/tf.math.add_208/Add", "model_101/tf.math.sigmoid_132/Sigmoid"], "attr": {"T": {"type": "DT_FLOAT"}}}, {"name": "model_101/tf.math.add_210/Add", "op": "AddV2", "input": ["model_101/tf.strided_slice_45/StridedSlice", "model_101/tf.math.multiply_579/Mul"], "attr": {"T": {"type": "DT_FLOAT"}}}, {"name": "model_101/tf.math.add_211/Add", "op": "_FusedConv2D", "input": ["model_101/tf.math.add_210/Add", "model_101/tf.nn.convolution_177/convolution/filter", "model_101/tf.math.add_211/Add/y"], "device": "/device:CPU:0", "attr": {"data_format": {"s": "TkhXQw=="}, "strides": {"list": {"i": ["1", "1", "1", "1"]}}, "num_host_args": {"i": "0"}, "filter_format": {"s": "SFdJTw=="}, "leakyrelu_alpha": {"f": 0.2}, "fused_ops": {"list": {"s": ["Qmlhc0FkZA=="]}}, "padding": {"s": "U0FNRQ=="}, "TArgs": {"list": {"type": ["DT_FLOAT"]}}, "num_args": {"i": "1"}, "explicit_paddings": {"list": {}}, "T": {"type": "DT_FLOAT"}, "use_cudnn_on_gpu": {"b": true}, "dilations": {"list": {"i": ["1", "1", "1", "1"]}}, "epsilon": {"f": 0.0}}}, {"name": "model_101/tf.math.sigmoid_133/Sigmoid", "op": "Sigmoid", "input": ["model_101/tf.math.add_211/Add"], "attr": {"T": {"type": "DT_FLOAT"}}}, {"name": "model_101/tf.math.multiply_585/Mul", "op": "Mul", "input": ["model_101/tf.math.add_211/Add", "model_101/tf.math.sigmoid_133/Sigmoid"], "attr": {"T": {"type": "DT_FLOAT"}}}, {"name": "model_101/tf.math.add_212/Add", "op": "_FusedConv2D", "input": ["model_101/tf.math.multiply_585/Mul", "model_101/tf.nn.convolution_178/convolution/filter", "model_101/tf.math.add_212/Add/y"], "device": "/device:CPU:0", "attr": {"explicit_paddings": {"list": {}}, "strides": {"list": {"i": ["1", "1", "1", "1"]}}, "data_format": {"s": "TkhXQw=="}, "fused_ops": {"list": {"s": ["Qmlhc0FkZA=="]}}, "TArgs": {"list": {"type": ["DT_FLOAT"]}}, "T": {"type": "DT_FLOAT"}, "padding": {"s": "U0FNRQ=="}, "use_cudnn_on_gpu": {"b": true}, "dilations": {"list": {"i": ["1", "1", "1", "1"]}}, "num_host_args": {"i": "0"}, "filter_format": {"s": "SFdJTw=="}, "epsilon": {"f": 0.0}, "num_args": {"i": "1"}, "leakyrelu_alpha": {"f": 0.2}}}, {"name": "model_101/tf.math.sigmoid_134/Sigmoid", "op": "Sigmoid", "input": ["model_101/tf.math.add_212/Add"], "attr": {"T": {"type": "DT_FLOAT"}}}, {"name": "model_101/tf.math.multiply_589/Mul", "op": "Mul", "input": ["model_101/tf.math.add_212/Add", "model_101/tf.math.sigmoid_134/Sigmoid"], "attr": {"T": {"type": "DT_FLOAT"}}}, {"name": "model_101/tf.math.add_214/Add", "op": "AddV2", "input": ["model_101/tf.math.add_210/Add", "model_101/tf.math.multiply_589/Mul"], "attr": {"T": {"type": "DT_FLOAT"}}}, {"name": "model_101/tf.concat_46/concat", "op": "ConcatV2", "input": ["model_101/tf.strided_slice_44/StridedSlice", "model_101/tf.strided_slice_45/StridedSlice", "model_101/tf.math.add_210/Add", "model_101/tf.math.add_214/Add", "model_101/tf.concat_46/concat/axis"], "attr": {"T": {"type": "DT_FLOAT"}, "Tidx": {"type": "DT_INT32"}, "N": {"i": "4"}}}, {"name": "model_101/tf.math.add_215/Add", "op": "_FusedConv2D", "input": ["model_101/tf.concat_46/concat", "model_101/tf.nn.convolution_179/convolution/filter", "model_101/tf.math.add_215/Add/y"], "device": "/device:CPU:0", "attr": {"T": {"type": "DT_FLOAT"}, "fused_ops": {"list": {"s": ["Qmlhc0FkZA=="]}}, "data_format": {"s": "TkhXQw=="}, "num_host_args": {"i": "0"}, "use_cudnn_on_gpu": {"b": true}, "filter_format": {"s": "SFdJTw=="}, "TArgs": {"list": {"type": ["DT_FLOAT"]}}, "explicit_paddings": {"list": {}}, "leakyrelu_alpha": {"f": 0.2}, "padding": {"s": "U0FNRQ=="}, "dilations": {"list": {"i": ["1", "1", "1", "1"]}}, "num_args": {"i": "1"}, "epsilon": {"f": 0.0}, "strides": {"list": {"i": ["1", "1", "1", "1"]}}}}, {"name": "model_101/tf.math.sigmoid_135/Sigmoid", "op": "Sigmoid", "input": ["model_101/tf.math.add_215/Add"], "attr": {"T": {"type": "DT_FLOAT"}}}, {"name": "model_101/tf.math.multiply_595/Mul", "op": "Mul", "input": ["model_101/tf.math.add_215/Add", "model_101/tf.math.sigmoid_135/Sigmoid"], "attr": {"T": {"type": "DT_FLOAT"}}}, {"name": "model_101/tf.compat.v1.pad_18/Pad", "op": "Pad", "input": ["model_101/tf.math.multiply_595/Mul", "model_101/tf.compat.v1.pad_18/Pad/paddings"], "attr": {"T": {"type": "DT_FLOAT"}, "Tpaddings": {"type": "DT_INT32"}}}, {"name": "model_101/tf.math.add_216/Add", "op": "_FusedConv2D", "input": ["model_101/tf.compat.v1.pad_18/Pad", "model_101/tf.nn.convolution_180/convolution/filter", "model_101/tf.math.add_216/Add/y"], "device": "/device:CPU:0", "attr": {"fused_ops": {"list": {"s": ["Qmlhc0FkZA=="]}}, "use_cudnn_on_gpu": {"b": true}, "TArgs": {"list": {"type": ["DT_FLOAT"]}}, "data_format": {"s": "TkhXQw=="}, "explicit_paddings": {"list": {}}, "padding": {"s": "VkFMSUQ="}, "strides": {"list": {"i": ["1", "2", "2", "1"]}}, "filter_format": {"s": "SFdJTw=="}, "dilations": {"list": {"i": ["1", "1", "1", "1"]}}, "num_host_args": {"i": "0"}, "num_args": {"i": "1"}, "T": {"type": "DT_FLOAT"}, "leakyrelu_alpha": {"f": 0.2}, "epsilon": {"f": 0.0}}}, {"name": "model_101/tf.math.sigmoid_136/Sigmoid", "op": "Sigmoid", "input": ["model_101/tf.math.add_216/Add"], "attr": {"T": {"type": "DT_FLOAT"}}}, {"name": "model_101/tf.math.multiply_599/Mul", "op": "Mul", "input": ["model_101/tf.math.add_216/Add", "model_101/tf.math.sigmoid_136/Sigmoid"], "attr": {"T": {"type": "DT_FLOAT"}}}, {"name": "model_101/tf.math.add_217/Add", "op": "_FusedConv2D", "input": ["model_101/tf.math.multiply_599/Mul", "model_101/tf.nn.convolution_181/convolution/filter", "model_101/tf.math.add_217/Add/y"], "device": "/device:CPU:0", "attr": {"use_cudnn_on_gpu": {"b": true}, "explicit_paddings": {"list": {}}, "padding": {"s": "U0FNRQ=="}, "epsilon": {"f": 0.0}, "data_format": {"s": "TkhXQw=="}, "fused_ops": {"list": {"s": ["Qmlhc0FkZA=="]}}, "T": {"type": "DT_FLOAT"}, "TArgs": {"list": {"type": ["DT_FLOAT"]}}, "num_args": {"i": "1"}, "num_host_args": {"i": "0"}, "strides": {"list": {"i": ["1", "1", "1", "1"]}}, "dilations": {"list": {"i": ["1", "1", "1", "1"]}}, "filter_format": {"s": "SFdJTw=="}, "leakyrelu_alpha": {"f": 0.2}}}, {"name": "model_101/tf.math.sigmoid_137/Sigmoid", "op": "Sigmoid", "input": ["model_101/tf.math.add_217/Add"], "attr": {"T": {"type": "DT_FLOAT"}}}, {"name": "model_101/tf.math.multiply_603/Mul", "op": "Mul", "input": ["model_101/tf.math.add_217/Add", "model_101/tf.math.sigmoid_137/Sigmoid"], "attr": {"T": {"type": "DT_FLOAT"}}}, {"name": "model_101/tf.strided_slice_46/StridedSlice", "op": "StridedSlice", "input": ["model_101/tf.math.multiply_603/Mul", "model_101/tf.strided_slice_46/ones_like/tensor", "model_101/tf.strided_slice_46/StridedSlice/end", "model_101/tf.strided_slice_46/ones_like"], "attr": {"begin_mask": {"i": "15"}, "end_mask": {"i": "7"}, "Index": {"type": "DT_INT64"}, "shrink_axis_mask": {"i": "0"}, "new_axis_mask": {"i": "0"}, "ellipsis_mask": {"i": "0"}, "T": {"type": "DT_FLOAT"}}}, {"name": "model_101/tf.strided_slice_47/StridedSlice", "op": "StridedSlice", "input": ["model_101/tf.math.multiply_603/Mul", "model_101/tf.strided_slice_47/ones_like/tensor", "model_101/tf.strided_slice_47/StridedSlice/end", "model_101/tf.strided_slice_47/ones_like"], "attr": {"new_axis_mask": {"i": "0"}, "end_mask": {"i": "7"}, "begin_mask": {"i": "7"}, "T": {"type": "DT_FLOAT"}, "ellipsis_mask": {"i": "0"}, "Index": {"type": "DT_INT64"}, "shrink_axis_mask": {"i": "0"}}}, {"name": "model_101/tf.math.add_218/Add", "op": "_FusedConv2D", "input": ["model_101/tf.strided_slice_47/StridedSlice", "model_101/tf.nn.convolution_182/convolution/filter", "model_101/tf.math.add_218/Add/y"], "device": "/device:CPU:0", "attr": {"filter_format": {"s": "SFdJTw=="}, "epsilon": {"f": 0.0}, "dilations": {"list": {"i": ["1", "1", "1", "1"]}}, "padding": {"s": "U0FNRQ=="}, "num_args": {"i": "1"}, "leakyrelu_alpha": {"f": 0.2}, "data_format": {"s": "TkhXQw=="}, "use_cudnn_on_gpu": {"b": true}, "fused_ops": {"list": {"s": ["Qmlhc0FkZA=="]}}, "TArgs": {"list": {"type": ["DT_FLOAT"]}}, "strides": {"list": {"i": ["1", "1", "1", "1"]}}, "T": {"type": "DT_FLOAT"}, "explicit_paddings": {"list": {}}, "num_host_args": {"i": "0"}}}, {"name": "model_101/tf.math.sigmoid_138/Sigmoid", "op": "Sigmoid", "input": ["model_101/tf.math.add_218/Add"], "attr": {"T": {"type": "DT_FLOAT"}}}, {"name": "model_101/tf.math.multiply_607/Mul", "op": "Mul", "input": ["model_101/tf.math.add_218/Add", "model_101/tf.math.sigmoid_138/Sigmoid"], "attr": {"T": {"type": "DT_FLOAT"}}}, {"name": "model_101/tf.math.add_219/Add", "op": "_FusedConv2D", "input": ["model_101/tf.math.multiply_607/Mul", "model_101/tf.nn.convolution_183/convolution/filter", "model_101/tf.math.add_219/Add/y"], "device": "/device:CPU:0", "attr": {"dilations": {"list": {"i": ["1", "1", "1", "1"]}}, "leakyrelu_alpha": {"f": 0.2}, "explicit_paddings": {"list": {}}, "T": {"type": "DT_FLOAT"}, "data_format": {"s": "TkhXQw=="}, "fused_ops": {"list": {"s": ["Qmlhc0FkZA=="]}}, "strides": {"list": {"i": ["1", "1", "1", "1"]}}, "TArgs": {"list": {"type": ["DT_FLOAT"]}}, "num_host_args": {"i": "0"}, "padding": {"s": "U0FNRQ=="}, "num_args": {"i": "1"}, "epsilon": {"f": 0.0}, "use_cudnn_on_gpu": {"b": true}, "filter_format": {"s": "SFdJTw=="}}}, {"name": "model_101/tf.math.sigmoid_139/Sigmoid", "op": "Sigmoid", "input": ["model_101/tf.math.add_219/Add"], "attr": {"T": {"type": "DT_FLOAT"}}}, {"name": "model_101/tf.math.multiply_611/Mul", "op": "Mul", "input": ["model_101/tf.math.add_219/Add", "model_101/tf.math.sigmoid_139/Sigmoid"], "attr": {"T": {"type": "DT_FLOAT"}}}, {"name": "model_101/tf.math.add_221/Add", "op": "AddV2", "input": ["model_101/tf.strided_slice_47/StridedSlice", "model_101/tf.math.multiply_611/Mul"], "attr": {"T": {"type": "DT_FLOAT"}}}, {"name": "model_101/tf.concat_47/concat", "op": "ConcatV2", "input": ["model_101/tf.strided_slice_46/StridedSlice", "model_101/tf.strided_slice_47/StridedSlice", "model_101/tf.math.add_221/Add", "model_101/tf.concat_47/concat/axis"], "attr": {"N": {"i": "3"}, "Tidx": {"type": "DT_INT32"}, "T": {"type": "DT_FLOAT"}}}, {"name": "model_101/tf.math.add_222/Add", "op": "_FusedConv2D", "input": ["model_101/tf.concat_47/concat", "model_101/tf.nn.convolution_184/convolution/filter", "model_101/tf.math.add_222/Add/y"], "device": "/device:CPU:0", "attr": {"epsilon": {"f": 0.0}, "filter_format": {"s": "SFdJTw=="}, "dilations": {"list": {"i": ["1", "1", "1", "1"]}}, "num_args": {"i": "1"}, "padding": {"s": "U0FNRQ=="}, "num_host_args": {"i": "0"}, "data_format": {"s": "TkhXQw=="}, "T": {"type": "DT_FLOAT"}, "use_cudnn_on_gpu": {"b": true}, "leakyrelu_alpha": {"f": 0.2}, "strides": {"list": {"i": ["1", "1", "1", "1"]}}, "fused_ops": {"list": {"s": ["Qmlhc0FkZA=="]}}, "explicit_paddings": {"list": {}}, "TArgs": {"list": {"type": ["DT_FLOAT"]}}}}, {"name": "model_101/tf.math.sigmoid_140/Sigmoid", "op": "Sigmoid", "input": ["model_101/tf.math.add_222/Add"], "attr": {"T": {"type": "DT_FLOAT"}}}, {"name": "model_101/tf.math.multiply_617/Mul", "op": "Mul", "input": ["model_101/tf.math.add_222/Add", "model_101/tf.math.sigmoid_140/Sigmoid"], "attr": {"T": {"type": "DT_FLOAT"}}}, {"name": "model_101/tf.math.add_223/Add", "op": "_FusedConv2D", "input": ["model_101/tf.math.multiply_617/Mul", "model_101/tf.nn.convolution_185/convolution/filter", "model_101/tf.math.add_223/Add/y"], "device": "/device:CPU:0", "attr": {"T": {"type": "DT_FLOAT"}, "dilations": {"list": {"i": ["1", "1", "1", "1"]}}, "filter_format": {"s": "SFdJTw=="}, "epsilon": {"f": 0.0}, "use_cudnn_on_gpu": {"b": true}, "fused_ops": {"list": {"s": ["Qmlhc0FkZA=="]}}, "num_args": {"i": "1"}, "padding": {"s": "U0FNRQ=="}, "data_format": {"s": "TkhXQw=="}, "strides": {"list": {"i": ["1", "1", "1", "1"]}}, "TArgs": {"list": {"type": ["DT_FLOAT"]}}, "leakyrelu_alpha": {"f": 0.2}, "explicit_paddings": {"list": {}}, "num_host_args": {"i": "0"}}}, {"name": "model_101/tf.math.sigmoid_141/Sigmoid", "op": "Sigmoid", "input": ["model_101/tf.math.add_223/Add"], "attr": {"T": {"type": "DT_FLOAT"}}}, {"name": "model_101/tf.math.multiply_621/Mul", "op": "Mul", "input": ["model_101/tf.math.add_223/Add", "model_101/tf.math.sigmoid_141/Sigmoid"], "attr": {"T": {"type": "DT_FLOAT"}}}, {"name": "model_101/tf.compat.v1.nn.pool_6/max_pool", "op": "MaxPool", "input": ["model_101/tf.math.multiply_621/Mul"], "attr": {"strides": {"list": {"i": ["1", "1", "1", "1"]}}, "data_format": {"s": "TkhXQw=="}, "explicit_paddings": {"list": {}}, "padding": {"s": "U0FNRQ=="}, "T": {"type": "DT_FLOAT"}, "ksize": {"list": {"i": ["1", "5", "5", "1"]}}}}, {"name": "model_101/tf.compat.v1.nn.pool_7/max_pool", "op": "MaxPool", "input": ["model_101/tf.compat.v1.nn.pool_6/max_pool"], "attr": {"data_format": {"s": "TkhXQw=="}, "explicit_paddings": {"list": {}}, "strides": {"list": {"i": ["1", "1", "1", "1"]}}, "T": {"type": "DT_FLOAT"}, "ksize": {"list": {"i": ["1", "5", "5", "1"]}}, "padding": {"s": "U0FNRQ=="}}}, {"name": "model_101/tf.compat.v1.nn.pool_8/max_pool", "op": "MaxPool", "input": ["model_101/tf.compat.v1.nn.pool_7/max_pool"], "attr": {"padding": {"s": "U0FNRQ=="}, "strides": {"list": {"i": ["1", "1", "1", "1"]}}, "data_format": {"s": "TkhXQw=="}, "T": {"type": "DT_FLOAT"}, "explicit_paddings": {"list": {}}, "ksize": {"list": {"i": ["1", "5", "5", "1"]}}}}, {"name": "model_101/tf.concat_48/concat", "op": "ConcatV2", "input": ["model_101/tf.math.multiply_621/Mul", "model_101/tf.compat.v1.nn.pool_6/max_pool", "model_101/tf.compat.v1.nn.pool_7/max_pool", "model_101/tf.compat.v1.nn.pool_8/max_pool", "model_101/tf.concat_48/concat/axis"], "attr": {"Tidx": {"type": "DT_INT32"}, "N": {"i": "4"}, "T": {"type": "DT_FLOAT"}}}, {"name": "model_101/tf.math.add_224/Add", "op": "_FusedConv2D", "input": ["model_101/tf.concat_48/concat", "model_101/tf.nn.convolution_186/convolution/filter", "model_101/tf.math.add_224/Add/y"], "device": "/device:CPU:0", "attr": {"T": {"type": "DT_FLOAT"}, "TArgs": {"list": {"type": ["DT_FLOAT"]}}, "leakyrelu_alpha": {"f": 0.2}, "epsilon": {"f": 0.0}, "filter_format": {"s": "SFdJTw=="}, "explicit_paddings": {"list": {}}, "data_format": {"s": "TkhXQw=="}, "num_host_args": {"i": "0"}, "padding": {"s": "U0FNRQ=="}, "use_cudnn_on_gpu": {"b": true}, "num_args": {"i": "1"}, "strides": {"list": {"i": ["1", "1", "1", "1"]}}, "dilations": {"list": {"i": ["1", "1", "1", "1"]}}, "fused_ops": {"list": {"s": ["Qmlhc0FkZA=="]}}}}, {"name": "model_101/tf.math.sigmoid_142/Sigmoid", "op": "Sigmoid", "input": ["model_101/tf.math.add_224/Add"], "attr": {"T": {"type": "DT_FLOAT"}}}, {"name": "model_101/tf.math.multiply_625/Mul", "op": "Mul", "input": ["model_101/tf.math.add_224/Add", "model_101/tf.math.sigmoid_142/Sigmoid"], "attr": {"T": {"type": "DT_FLOAT"}}}, {"name": "model_101/tf.image.resize_4/resize/ResizeNearestNeighbor", "op": "ResizeNearestNeighbor", "input": ["model_101/tf.math.multiply_625/Mul", "model_101/tf.image.resize_4/resize/size"], "attr": {"T": {"type": "DT_FLOAT"}, "align_corners": {"b": false}, "half_pixel_centers": {"b": true}}}, {"name": "model_101/tf.concat_49/concat", "op": "ConcatV2", "input": ["model_101/tf.image.resize_4/resize/ResizeNearestNeighbor", "model_101/tf.math.multiply_595/Mul", "model_101/tf.concat_49/concat/axis"], "attr": {"T": {"type": "DT_FLOAT"}, "N": {"i": "2"}, "Tidx": {"type": "DT_INT32"}}}, {"name": "model_101/tf.math.add_225/Add", "op": "_FusedConv2D", "input": ["model_101/tf.concat_49/concat", "model_101/tf.nn.convolution_187/convolution/filter", "model_101/tf.math.add_225/Add/y"], "device": "/device:CPU:0", "attr": {"TArgs": {"list": {"type": ["DT_FLOAT"]}}, "leakyrelu_alpha": {"f": 0.2}, "num_args": {"i": "1"}, "filter_format": {"s": "SFdJTw=="}, "strides": {"list": {"i": ["1", "1", "1", "1"]}}, "num_host_args": {"i": "0"}, "T": {"type": "DT_FLOAT"}, "data_format": {"s": "TkhXQw=="}, "use_cudnn_on_gpu": {"b": true}, "padding": {"s": "U0FNRQ=="}, "dilations": {"list": {"i": ["1", "1", "1", "1"]}}, "fused_ops": {"list": {"s": ["Qmlhc0FkZA=="]}}, "explicit_paddings": {"list": {}}, "epsilon": {"f": 0.0}}}, {"name": "model_101/tf.math.sigmoid_143/Sigmoid", "op": "Sigmoid", "input": ["model_101/tf.math.add_225/Add"], "attr": {"T": {"type": "DT_FLOAT"}}}, {"name": "model_101/tf.math.multiply_629/Mul", "op": "Mul", "input": ["model_101/tf.math.add_225/Add", "model_101/tf.math.sigmoid_143/Sigmoid"], "attr": {"T": {"type": "DT_FLOAT"}}}, {"name": "model_101/tf.strided_slice_48/StridedSlice", "op": "StridedSlice", "input": ["model_101/tf.math.multiply_629/Mul", "model_101/tf.strided_slice_48/ones_like/tensor", "model_101/tf.strided_slice_48/StridedSlice/end", "model_101/tf.strided_slice_48/ones_like"], "attr": {"Index": {"type": "DT_INT64"}, "begin_mask": {"i": "15"}, "T": {"type": "DT_FLOAT"}, "end_mask": {"i": "7"}, "shrink_axis_mask": {"i": "0"}, "ellipsis_mask": {"i": "0"}, "new_axis_mask": {"i": "0"}}}, {"name": "model_101/tf.strided_slice_49/StridedSlice", "op": "StridedSlice", "input": ["model_101/tf.math.multiply_629/Mul", "model_101/tf.strided_slice_49/ones_like/tensor", "model_101/tf.strided_slice_49/StridedSlice/end", "model_101/tf.strided_slice_49/ones_like"], "attr": {"begin_mask": {"i": "7"}, "end_mask": {"i": "7"}, "new_axis_mask": {"i": "0"}, "shrink_axis_mask": {"i": "0"}, "ellipsis_mask": {"i": "0"}, "Index": {"type": "DT_INT64"}, "T": {"type": "DT_FLOAT"}}}, {"name": "model_101/tf.math.add_226/Add", "op": "_FusedConv2D", "input": ["model_101/tf.strided_slice_49/StridedSlice", "model_101/tf.nn.convolution_188/convolution/filter", "model_101/tf.math.add_226/Add/y"], "device": "/device:CPU:0", "attr": {"explicit_paddings": {"list": {}}, "TArgs": {"list": {"type": ["DT_FLOAT"]}}, "padding": {"s": "U0FNRQ=="}, "data_format": {"s": "TkhXQw=="}, "strides": {"list": {"i": ["1", "1", "1", "1"]}}, "num_host_args": {"i": "0"}, "num_args": {"i": "1"}, "filter_format": {"s": "SFdJTw=="}, "leakyrelu_alpha": {"f": 0.2}, "epsilon": {"f": 0.0}, "use_cudnn_on_gpu": {"b": true}, "T": {"type": "DT_FLOAT"}, "dilations": {"list": {"i": ["1", "1", "1", "1"]}}, "fused_ops": {"list": {"s": ["Qmlhc0FkZA=="]}}}}, {"name": "model_101/tf.math.sigmoid_144/Sigmoid", "op": "Sigmoid", "input": ["model_101/tf.math.add_226/Add"], "attr": {"T": {"type": "DT_FLOAT"}}}, {"name": "model_101/tf.math.multiply_633/Mul", "op": "Mul", "input": ["model_101/tf.math.add_226/Add", "model_101/tf.math.sigmoid_144/Sigmoid"], "attr": {"T": {"type": "DT_FLOAT"}}}, {"name": "model_101/tf.math.add_227/Add", "op": "_FusedConv2D", "input": ["model_101/tf.math.multiply_633/Mul", "model_101/tf.nn.convolution_189/convolution/filter", "model_101/tf.math.add_227/Add/y"], "device": "/device:CPU:0", "attr": {"dilations": {"list": {"i": ["1", "1", "1", "1"]}}, "fused_ops": {"list": {"s": ["Qmlhc0FkZA=="]}}, "data_format": {"s": "TkhXQw=="}, "num_args": {"i": "1"}, "strides": {"list": {"i": ["1", "1", "1", "1"]}}, "TArgs": {"list": {"type": ["DT_FLOAT"]}}, "epsilon": {"f": 0.0}, "use_cudnn_on_gpu": {"b": true}, "T": {"type": "DT_FLOAT"}, "leakyrelu_alpha": {"f": 0.2}, "explicit_paddings": {"list": {}}, "padding": {"s": "U0FNRQ=="}, "filter_format": {"s": "SFdJTw=="}, "num_host_args": {"i": "0"}}}, {"name": "model_101/tf.math.sigmoid_145/Sigmoid", "op": "Sigmoid", "input": ["model_101/tf.math.add_227/Add"], "attr": {"T": {"type": "DT_FLOAT"}}}, {"name": "model_101/tf.math.multiply_637/Mul", "op": "Mul", "input": ["model_101/tf.math.add_227/Add", "model_101/tf.math.sigmoid_145/Sigmoid"], "attr": {"T": {"type": "DT_FLOAT"}}}, {"name": "model_101/tf.concat_50/concat", "op": "ConcatV2", "input": ["model_101/tf.strided_slice_48/StridedSlice", "model_101/tf.strided_slice_49/StridedSlice", "model_101/tf.math.multiply_637/Mul", "model_101/tf.concat_50/concat/axis"], "attr": {"T": {"type": "DT_FLOAT"}, "N": {"i": "3"}, "Tidx": {"type": "DT_INT32"}}}, {"name": "model_101/tf.math.add_228/Add", "op": "_FusedConv2D", "input": ["model_101/tf.concat_50/concat", "model_101/tf.nn.convolution_190/convolution/filter", "model_101/tf.math.add_228/Add/y"], "device": "/device:CPU:0", "attr": {"epsilon": {"f": 0.0}, "strides": {"list": {"i": ["1", "1", "1", "1"]}}, "num_args": {"i": "1"}, "filter_format": {"s": "SFdJTw=="}, "data_format": {"s": "TkhXQw=="}, "padding": {"s": "U0FNRQ=="}, "dilations": {"list": {"i": ["1", "1", "1", "1"]}}, "fused_ops": {"list": {"s": ["Qmlhc0FkZA=="]}}, "leakyrelu_alpha": {"f": 0.2}, "T": {"type": "DT_FLOAT"}, "num_host_args": {"i": "0"}, "use_cudnn_on_gpu": {"b": true}, "TArgs": {"list": {"type": ["DT_FLOAT"]}}, "explicit_paddings": {"list": {}}}}, {"name": "model_101/tf.math.sigmoid_146/Sigmoid", "op": "Sigmoid", "input": ["model_101/tf.math.add_228/Add"], "attr": {"T": {"type": "DT_FLOAT"}}}, {"name": "model_101/tf.math.multiply_641/Mul", "op": "Mul", "input": ["model_101/tf.math.add_228/Add", "model_101/tf.math.sigmoid_146/Sigmoid"], "attr": {"T": {"type": "DT_FLOAT"}}}, {"name": "model_101/tf.image.resize_5/resize/ResizeNearestNeighbor", "op": "ResizeNearestNeighbor", "input": ["model_101/tf.math.multiply_641/Mul", "model_101/tf.image.resize_5/resize/size"], "attr": {"align_corners": {"b": false}, "half_pixel_centers": {"b": true}, "T": {"type": "DT_FLOAT"}}}, {"name": "model_101/tf.concat_51/concat", "op": "ConcatV2", "input": ["model_101/tf.image.resize_5/resize/ResizeNearestNeighbor", "model_101/tf.math.multiply_563/Mul", "model_101/tf.concat_51/concat/axis"], "attr": {"Tidx": {"type": "DT_INT32"}, "T": {"type": "DT_FLOAT"}, "N": {"i": "2"}}}, {"name": "model_101/tf.math.add_229/Add", "op": "_FusedConv2D", "input": ["model_101/tf.concat_51/concat", "model_101/tf.nn.convolution_191/convolution/filter", "model_101/tf.math.add_229/Add/y"], "device": "/device:CPU:0", "attr": {"data_format": {"s": "TkhXQw=="}, "use_cudnn_on_gpu": {"b": true}, "epsilon": {"f": 0.0}, "fused_ops": {"list": {"s": ["Qmlhc0FkZA=="]}}, "padding": {"s": "U0FNRQ=="}, "dilations": {"list": {"i": ["1", "1", "1", "1"]}}, "explicit_paddings": {"list": {}}, "leakyrelu_alpha": {"f": 0.2}, "filter_format": {"s": "SFdJTw=="}, "TArgs": {"list": {"type": ["DT_FLOAT"]}}, "strides": {"list": {"i": ["1", "1", "1", "1"]}}, "T": {"type": "DT_FLOAT"}, "num_host_args": {"i": "0"}, "num_args": {"i": "1"}}}, {"name": "model_101/tf.math.sigmoid_147/Sigmoid", "op": "Sigmoid", "input": ["model_101/tf.math.add_229/Add"], "attr": {"T": {"type": "DT_FLOAT"}}}, {"name": "model_101/tf.math.multiply_645/Mul", "op": "Mul", "input": ["model_101/tf.math.add_229/Add", "model_101/tf.math.sigmoid_147/Sigmoid"], "attr": {"T": {"type": "DT_FLOAT"}}}, {"name": "model_101/tf.strided_slice_50/StridedSlice", "op": "StridedSlice", "input": ["model_101/tf.math.multiply_645/Mul", "model_101/tf.strided_slice_50/ones_like/tensor", "model_101/tf.strided_slice_50/StridedSlice/end", "model_101/tf.strided_slice_50/ones_like"], "attr": {"shrink_axis_mask": {"i": "0"}, "ellipsis_mask": {"i": "0"}, "begin_mask": {"i": "15"}, "Index": {"type": "DT_INT64"}, "end_mask": {"i": "7"}, "T": {"type": "DT_FLOAT"}, "new_axis_mask": {"i": "0"}}}, {"name": "model_101/tf.strided_slice_51/StridedSlice", "op": "StridedSlice", "input": ["model_101/tf.math.multiply_645/Mul", "model_101/tf.strided_slice_51/ones_like/tensor", "model_101/tf.strided_slice_51/StridedSlice/end", "model_101/tf.strided_slice_51/ones_like"], "attr": {"new_axis_mask": {"i": "0"}, "end_mask": {"i": "7"}, "ellipsis_mask": {"i": "0"}, "begin_mask": {"i": "7"}, "shrink_axis_mask": {"i": "0"}, "T": {"type": "DT_FLOAT"}, "Index": {"type": "DT_INT64"}}}, {"name": "model_101/tf.math.add_232/Add", "op": "_FusedConv2D", "input": ["model_101/tf.strided_slice_51/StridedSlice", "model_101/tf.nn.convolution_194/convolution/filter", "model_101/tf.math.add_232/Add/y"], "device": "/device:CPU:0", "attr": {"leakyrelu_alpha": {"f": 0.2}, "padding": {"s": "U0FNRQ=="}, "num_args": {"i": "1"}, "T": {"type": "DT_FLOAT"}, "explicit_paddings": {"list": {}}, "filter_format": {"s": "SFdJTw=="}, "use_cudnn_on_gpu": {"b": true}, "epsilon": {"f": 0.0}, "dilations": {"list": {"i": ["1", "1", "1", "1"]}}, "fused_ops": {"list": {"s": ["Qmlhc0FkZA=="]}}, "num_host_args": {"i": "0"}, "TArgs": {"list": {"type": ["DT_FLOAT"]}}, "data_format": {"s": "TkhXQw=="}, "strides": {"list": {"i": ["1", "1", "1", "1"]}}}}, {"name": "model_101/tf.math.sigmoid_148/Sigmoid", "op": "Sigmoid", "input": ["model_101/tf.math.add_232/Add"], "attr": {"T": {"type": "DT_FLOAT"}}}, {"name": "model_101/tf.math.multiply_649/Mul", "op": "Mul", "input": ["model_101/tf.math.add_232/Add", "model_101/tf.math.sigmoid_148/Sigmoid"], "attr": {"T": {"type": "DT_FLOAT"}}}, {"name": "model_101/tf.math.add_235/Add", "op": "_FusedConv2D", "input": ["model_101/tf.math.multiply_649/Mul", "model_101/tf.nn.convolution_197/convolution/filter", "model_101/tf.math.add_235/Add/y"], "device": "/device:CPU:0", "attr": {"TArgs": {"list": {"type": ["DT_FLOAT"]}}, "padding": {"s": "U0FNRQ=="}, "leakyrelu_alpha": {"f": 0.2}, "num_args": {"i": "1"}, "epsilon": {"f": 0.0}, "filter_format": {"s": "SFdJTw=="}, "dilations": {"list": {"i": ["1", "1", "1", "1"]}}, "explicit_paddings": {"list": {}}, "fused_ops": {"list": {"s": ["Qmlhc0FkZA=="]}}, "num_host_args": {"i": "0"}, "use_cudnn_on_gpu": {"b": true}, "T": {"type": "DT_FLOAT"}, "data_format": {"s": "TkhXQw=="}, "strides": {"list": {"i": ["1", "1", "1", "1"]}}}}, {"name": "model_101/tf.math.sigmoid_149/Sigmoid", "op": "Sigmoid", "input": ["model_101/tf.math.add_235/Add"], "attr": {"T": {"type": "DT_FLOAT"}}}, {"name": "model_101/tf.math.multiply_653/Mul", "op": "Mul", "input": ["model_101/tf.math.add_235/Add", "model_101/tf.math.sigmoid_149/Sigmoid"], "attr": {"T": {"type": "DT_FLOAT"}}}, {"name": "model_101/tf.concat_52/concat", "op": "ConcatV2", "input": ["model_101/tf.strided_slice_50/StridedSlice", "model_101/tf.strided_slice_51/StridedSlice", "model_101/tf.math.multiply_653/Mul", "model_101/tf.concat_52/concat/axis"], "attr": {"Tidx": {"type": "DT_INT32"}, "N": {"i": "3"}, "T": {"type": "DT_FLOAT"}}}, {"name": "model_101/tf.math.add_236/Add", "op": "_FusedConv2D", "input": ["model_101/tf.concat_52/concat", "model_101/tf.nn.convolution_198/convolution/filter", "model_101/tf.math.add_236/Add/y"], "device": "/device:CPU:0", "attr": {"dilations": {"list": {"i": ["1", "1", "1", "1"]}}, "explicit_paddings": {"list": {}}, "strides": {"list": {"i": ["1", "1", "1", "1"]}}, "num_host_args": {"i": "0"}, "TArgs": {"list": {"type": ["DT_FLOAT"]}}, "leakyrelu_alpha": {"f": 0.2}, "padding": {"s": "U0FNRQ=="}, "num_args": {"i": "1"}, "use_cudnn_on_gpu": {"b": true}, "epsilon": {"f": 0.0}, "filter_format": {"s": "SFdJTw=="}, "data_format": {"s": "TkhXQw=="}, "T": {"type": "DT_FLOAT"}, "fused_ops": {"list": {"s": ["Qmlhc0FkZA=="]}}}}, {"name": "model_101/tf.math.sigmoid_150/Sigmoid", "op": "Sigmoid", "input": ["model_101/tf.math.add_236/Add"], "attr": {"T": {"type": "DT_FLOAT"}}}, {"name": "model_101/tf.math.multiply_657/Mul", "op": "Mul", "input": ["model_101/tf.math.add_236/Add", "model_101/tf.math.sigmoid_150/Sigmoid"], "attr": {"T": {"type": "DT_FLOAT"}}}, {"name": "model_101/tf.math.add_238/Add", "op": "_FusedConv2D", "input": ["model_101/tf.math.multiply_657/Mul", "model_101/tf.nn.convolution_200/convolution/filter", "model_101/tf.math.add_238/Add/y"], "device": "/device:CPU:0", "attr": {"T": {"type": "DT_FLOAT"}, "explicit_paddings": {"list": {}}, "TArgs": {"list": {"type": ["DT_FLOAT"]}}, "strides": {"list": {"i": ["1", "1", "1", "1"]}}, "use_cudnn_on_gpu": {"b": true}, "num_args": {"i": "1"}, "num_host_args": {"i": "0"}, "fused_ops": {"list": {"s": ["Qmlhc0FkZA=="]}}, "epsilon": {"f": 0.0}, "leakyrelu_alpha": {"f": 0.2}, "dilations": {"list": {"i": ["1", "1", "1", "1"]}}, "data_format": {"s": "TkhXQw=="}, "padding": {"s": "U0FNRQ=="}, "filter_format": {"s": "SFdJTw=="}}}, {"name": "model_101/tf.math.add_239/Add", "op": "_FusedConv2D", "input": ["model_101/tf.math.multiply_657/Mul", "model_101/tf.nn.convolution_201/convolution/filter", "model_101/tf.math.add_239/Add/y"], "device": "/device:CPU:0", "attr": {"strides": {"list": {"i": ["1", "1", "1", "1"]}}, "epsilon": {"f": 0.0}, "explicit_paddings": {"list": {}}, "num_host_args": {"i": "0"}, "num_args": {"i": "1"}, "filter_format": {"s": "SFdJTw=="}, "use_cudnn_on_gpu": {"b": true}, "TArgs": {"list": {"type": ["DT_FLOAT"]}}, "T": {"type": "DT_FLOAT"}, "padding": {"s": "U0FNRQ=="}, "leakyrelu_alpha": {"f": 0.2}, "fused_ops": {"list": {"s": ["Qmlhc0FkZA=="]}}, "dilations": {"list": {"i": ["1", "1", "1", "1"]}}, "data_format": {"s": "TkhXQw=="}}}, {"name": "model_101/tf.compat.v1.pad_19/Pad", "op": "Pad", "input": ["model_101/tf.math.multiply_657/Mul", "model_101/tf.compat.v1.pad_19/Pad/paddings"], "attr": {"Tpaddings": {"type": "DT_INT32"}, "T": {"type": "DT_FLOAT"}}}, {"name": "model_101/tf.math.sigmoid_152/Sigmoid", "op": "Sigmoid", "input": ["model_101/tf.math.add_238/Add"], "attr": {"T": {"type": "DT_FLOAT"}}}, {"name": "model_101/tf.math.sigmoid_153/Sigmoid", "op": "Sigmoid", "input": ["model_101/tf.math.add_239/Add"], "attr": {"T": {"type": "DT_FLOAT"}}}, {"name": "model_101/tf.math.add_237/Add", "op": "_FusedConv2D", "input": ["model_101/tf.compat.v1.pad_19/Pad", "model_101/tf.nn.convolution_199/convolution/filter", "model_101/tf.math.add_237/Add/y"], "device": "/device:CPU:0", "attr": {"fused_ops": {"list": {"s": ["Qmlhc0FkZA=="]}}, "T": {"type": "DT_FLOAT"}, "num_host_args": {"i": "0"}, "dilations": {"list": {"i": ["1", "1", "1", "1"]}}, "explicit_paddings": {"list": {}}, "epsilon": {"f": 0.0}, "filter_format": {"s": "SFdJTw=="}, "num_args": {"i": "1"}, "data_format": {"s": "TkhXQw=="}, "strides": {"list": {"i": ["1", "2", "2", "1"]}}, "padding": {"s": "VkFMSUQ="}, "use_cudnn_on_gpu": {"b": true}, "leakyrelu_alpha": {"f": 0.2}, "TArgs": {"list": {"type": ["DT_FLOAT"]}}}}, {"name": "model_101/tf.math.multiply_665/Mul", "op": "Mul", "input": ["model_101/tf.math.add_238/Add", "model_101/tf.math.sigmoid_152/Sigmoid"], "attr": {"T": {"type": "DT_FLOAT"}}}, {"name": "model_101/tf.math.multiply_669/Mul", "op": "Mul", "input": ["model_101/tf.math.add_239/Add", "model_101/tf.math.sigmoid_153/Sigmoid"], "attr": {"T": {"type": "DT_FLOAT"}}}, {"name": "model_101/tf.math.sigmoid_151/Sigmoid", "op": "Sigmoid", "input": ["model_101/tf.math.add_237/Add"], "attr": {"T": {"type": "DT_FLOAT"}}}, {"name": "model_101/tf.math.add_240/Add", "op": "_FusedConv2D", "input": ["model_101/tf.math.multiply_665/Mul", "model_101/tf.nn.convolution_202/convolution/filter", "model_101/tf.math.add_240/Add/y"], "device": "/device:CPU:0", "attr": {"leakyrelu_alpha": {"f": 0.2}, "data_format": {"s": "TkhXQw=="}, "strides": {"list": {"i": ["1", "1", "1", "1"]}}, "filter_format": {"s": "SFdJTw=="}, "dilations": {"list": {"i": ["1", "1", "1", "1"]}}, "explicit_paddings": {"list": {}}, "use_cudnn_on_gpu": {"b": true}, "num_args": {"i": "1"}, "TArgs": {"list": {"type": ["DT_FLOAT"]}}, "epsilon": {"f": 0.0}, "T": {"type": "DT_FLOAT"}, "fused_ops": {"list": {"s": ["Qmlhc0FkZA=="]}}, "padding": {"s": "U0FNRQ=="}, "num_host_args": {"i": "0"}}}, {"name": "model_101/tf.math.add_241/Add", "op": "_FusedConv2D", "input": ["model_101/tf.math.multiply_669/Mul", "model_101/tf.nn.convolution_203/convolution/filter", "model_101/tf.math.add_241/Add/y"], "device": "/device:CPU:0", "attr": {"explicit_paddings": {"list": {}}, "num_args": {"i": "1"}, "padding": {"s": "U0FNRQ=="}, "strides": {"list": {"i": ["1", "1", "1", "1"]}}, "epsilon": {"f": 0.0}, "leakyrelu_alpha": {"f": 0.2}, "T": {"type": "DT_FLOAT"}, "data_format": {"s": "TkhXQw=="}, "num_host_args": {"i": "0"}, "use_cudnn_on_gpu": {"b": true}, "fused_ops": {"list": {"s": ["Qmlhc0FkZA=="]}}, "TArgs": {"list": {"type": ["DT_FLOAT"]}}, "dilations": {"list": {"i": ["1", "1", "1", "1"]}}, "filter_format": {"s": "SFdJTw=="}}}, {"name": "model_101/tf.math.multiply_661/Mul", "op": "Mul", "input": ["model_101/tf.math.add_237/Add", "model_101/tf.math.sigmoid_151/Sigmoid"], "attr": {"T": {"type": "DT_FLOAT"}}}, {"name": "model_101/tf.math.sigmoid_154/Sigmoid", "op": "Sigmoid", "input": ["model_101/tf.math.add_240/Add"], "attr": {"T": {"type": "DT_FLOAT"}}}, {"name": "model_101/tf.math.sigmoid_155/Sigmoid", "op": "Sigmoid", "input": ["model_101/tf.math.add_241/Add"], "attr": {"T": {"type": "DT_FLOAT"}}}, {"name": "model_101/tf.concat_53/concat", "op": "ConcatV2", "input": ["model_101/tf.math.multiply_661/Mul", "model_101/tf.math.multiply_641/Mul", "model_101/tf.concat_53/concat/axis"], "attr": {"N": {"i": "2"}, "T": {"type": "DT_FLOAT"}, "Tidx": {"type": "DT_INT32"}}}, {"name": "model_101/tf.math.multiply_673/Mul", "op": "Mul", "input": ["model_101/tf.math.add_240/Add", "model_101/tf.math.sigmoid_154/Sigmoid"], "attr": {"T": {"type": "DT_FLOAT"}}}, {"name": "model_101/tf.math.multiply_677/Mul", "op": "Mul", "input": ["model_101/tf.math.add_241/Add", "model_101/tf.math.sigmoid_155/Sigmoid"], "attr": {"T": {"type": "DT_FLOAT"}}}, {"name": "model_101/tf.math.add_242/Add", "op": "_FusedConv2D", "input": ["model_101/tf.concat_53/concat", "model_101/tf.nn.convolution_204/convolution/filter", "model_101/tf.math.add_242/Add/y"], "device": "/device:CPU:0", "attr": {"num_args": {"i": "1"}, "explicit_paddings": {"list": {}}, "dilations": {"list": {"i": ["1", "1", "1", "1"]}}, "padding": {"s": "U0FNRQ=="}, "use_cudnn_on_gpu": {"b": true}, "data_format": {"s": "TkhXQw=="}, "fused_ops": {"list": {"s": ["Qmlhc0FkZA=="]}}, "epsilon": {"f": 0.0}, "T": {"type": "DT_FLOAT"}, "filter_format": {"s": "SFdJTw=="}, "strides": {"list": {"i": ["1", "1", "1", "1"]}}, "num_host_args": {"i": "0"}, "TArgs": {"list": {"type": ["DT_FLOAT"]}}, "leakyrelu_alpha": {"f": 0.2}}}, {"name": "model_101/tf.math.add_243/Add", "op": "_FusedConv2D", "input": ["model_101/tf.math.multiply_673/Mul", "model_101/tf.nn.convolution_205/convolution/filter", "model_101/tf.math.add_243/Add/y"], "device": "/device:CPU:0", "attr": {"explicit_paddings": {"list": {}}, "num_host_args": {"i": "0"}, "dilations": {"list": {"i": ["1", "1", "1", "1"]}}, "fused_ops": {"list": {"s": ["Qmlhc0FkZA=="]}}, "strides": {"list": {"i": ["1", "1", "1", "1"]}}, "use_cudnn_on_gpu": {"b": true}, "filter_format": {"s": "SFdJTw=="}, "T": {"type": "DT_FLOAT"}, "epsilon": {"f": 0.0}, "padding": {"s": "U0FNRQ=="}, "data_format": {"s": "TkhXQw=="}, "TArgs": {"list": {"type": ["DT_FLOAT"]}}, "num_args": {"i": "1"}, "leakyrelu_alpha": {"f": 0.2}}}, {"name": "model_101/tf.math.add_244/Add", "op": "_FusedConv2D", "input": ["model_101/tf.math.multiply_677/Mul", "model_101/tf.nn.convolution_206/convolution/filter", "model_101/tf.math.add_244/Add/y"], "device": "/device:CPU:0", "attr": {"explicit_paddings": {"list": {}}, "use_cudnn_on_gpu": {"b": true}, "num_host_args": {"i": "0"}, "leakyrelu_alpha": {"f": 0.2}, "epsilon": {"f": 0.0}, "TArgs": {"list": {"type": ["DT_FLOAT"]}}, "num_args": {"i": "1"}, "strides": {"list": {"i": ["1", "1", "1", "1"]}}, "padding": {"s": "U0FNRQ=="}, "dilations": {"list": {"i": ["1", "1", "1", "1"]}}, "T": {"type": "DT_FLOAT"}, "filter_format": {"s": "SFdJTw=="}, "fused_ops": {"list": {"s": ["Qmlhc0FkZA=="]}}, "data_format": {"s": "TkhXQw=="}}}, {"name": "model_101/tf.math.sigmoid_156/Sigmoid", "op": "Sigmoid", "input": ["model_101/tf.math.add_242/Add"], "attr": {"T": {"type": "DT_FLOAT"}}}, {"name": "model_101/tf.concat_54/concat", "op": "ConcatV2", "input": ["model_101/tf.math.add_243/Add", "model_101/tf.math.add_244/Add", "model_101/tf.concat_54/concat/axis"], "attr": {"Tidx": {"type": "DT_INT32"}, "N": {"i": "2"}, "T": {"type": "DT_FLOAT"}}}, {"name": "model_101/tf.math.multiply_681/Mul", "op": "Mul", "input": ["model_101/tf.math.add_242/Add", "model_101/tf.math.sigmoid_156/Sigmoid"], "attr": {"T": {"type": "DT_FLOAT"}}}, {"name": "model_101/tf.compat.v1.transpose_124/transpose", "op": "Transpose", "input": ["model_101/tf.concat_54/concat", "model_101/tf.compat.v1.transpose_124/transpose/perm"], "attr": {"T": {"type": "DT_FLOAT"}, "Tperm": {"type": "DT_INT32"}}}, {"name": "model_101/tf.strided_slice_52/StridedSlice", "op": "StridedSlice", "input": ["model_101/tf.math.multiply_681/Mul", "model_101/tf.strided_slice_52/ones_like/tensor", "model_101/tf.strided_slice_52/StridedSlice/end", "model_101/tf.strided_slice_52/ones_like"], "attr": {"Index": {"type": "DT_INT64"}, "shrink_axis_mask": {"i": "0"}, "new_axis_mask": {"i": "0"}, "end_mask": {"i": "7"}, "begin_mask": {"i": "15"}, "ellipsis_mask": {"i": "0"}, "T": {"type": "DT_FLOAT"}}}, {"name": "model_101/tf.strided_slice_53/StridedSlice", "op": "StridedSlice", "input": ["model_101/tf.math.multiply_681/Mul", "model_101/tf.strided_slice_53/ones_like/tensor", "model_101/tf.strided_slice_53/StridedSlice/end", "model_101/tf.strided_slice_53/ones_like"], "attr": {"ellipsis_mask": {"i": "0"}, "T": {"type": "DT_FLOAT"}, "end_mask": {"i": "7"}, "begin_mask": {"i": "7"}, "new_axis_mask": {"i": "0"}, "Index": {"type": "DT_INT64"}, "shrink_axis_mask": {"i": "0"}}}, {"name": "model_101/tf.reshape_32/Reshape", "op": "Reshape", "input": ["model_101/tf.compat.v1.transpose_124/transpose", "model_101/tf.reshape_32/Reshape/shape"], "attr": {"Tshape": {"type": "DT_INT32"}, "T": {"type": "DT_FLOAT"}}}, {"name": "model_101/tf.math.add_245/Add", "op": "_FusedConv2D", "input": ["model_101/tf.strided_slice_53/StridedSlice", "model_101/tf.nn.convolution_207/convolution/filter", "model_101/tf.math.add_245/Add/y"], "device": "/device:CPU:0", "attr": {"data_format": {"s": "TkhXQw=="}, "explicit_paddings": {"list": {}}, "num_args": {"i": "1"}, "fused_ops": {"list": {"s": ["Qmlhc0FkZA=="]}}, "padding": {"s": "U0FNRQ=="}, "leakyrelu_alpha": {"f": 0.2}, "dilations": {"list": {"i": ["1", "1", "1", "1"]}}, "TArgs": {"list": {"type": ["DT_FLOAT"]}}, "num_host_args": {"i": "0"}, "T": {"type": "DT_FLOAT"}, "strides": {"list": {"i": ["1", "1", "1", "1"]}}, "use_cudnn_on_gpu": {"b": true}, "filter_format": {"s": "SFdJTw=="}, "epsilon": {"f": 0.0}}}, {"name": "model_101/tf.math.sigmoid_157/Sigmoid", "op": "Sigmoid", "input": ["model_101/tf.math.add_245/Add"], "attr": {"T": {"type": "DT_FLOAT"}}}, {"name": "model_101/tf.math.multiply_685/Mul", "op": "Mul", "input": ["model_101/tf.math.add_245/Add", "model_101/tf.math.sigmoid_157/Sigmoid"], "attr": {"T": {"type": "DT_FLOAT"}}}, {"name": "model_101/tf.math.add_246/Add", "op": "_FusedConv2D", "input": ["model_101/tf.math.multiply_685/Mul", "model_101/tf.nn.convolution_208/convolution/filter", "model_101/tf.math.add_246/Add/y"], "device": "/device:CPU:0", "attr": {"T": {"type": "DT_FLOAT"}, "TArgs": {"list": {"type": ["DT_FLOAT"]}}, "fused_ops": {"list": {"s": ["Qmlhc0FkZA=="]}}, "epsilon": {"f": 0.0}, "leakyrelu_alpha": {"f": 0.2}, "filter_format": {"s": "SFdJTw=="}, "num_host_args": {"i": "0"}, "dilations": {"list": {"i": ["1", "1", "1", "1"]}}, "use_cudnn_on_gpu": {"b": true}, "explicit_paddings": {"list": {}}, "padding": {"s": "U0FNRQ=="}, "num_args": {"i": "1"}, "strides": {"list": {"i": ["1", "1", "1", "1"]}}, "data_format": {"s": "TkhXQw=="}}}, {"name": "model_101/tf.math.sigmoid_158/Sigmoid", "op": "Sigmoid", "input": ["model_101/tf.math.add_246/Add"], "attr": {"T": {"type": "DT_FLOAT"}}}, {"name": "model_101/tf.math.multiply_689/Mul", "op": "Mul", "input": ["model_101/tf.math.add_246/Add", "model_101/tf.math.sigmoid_158/Sigmoid"], "attr": {"T": {"type": "DT_FLOAT"}}}, {"name": "model_101/tf.concat_55/concat", "op": "ConcatV2", "input": ["model_101/tf.strided_slice_52/StridedSlice", "model_101/tf.strided_slice_53/StridedSlice", "model_101/tf.math.multiply_689/Mul", "model_101/tf.concat_55/concat/axis"], "attr": {"Tidx": {"type": "DT_INT32"}, "N": {"i": "3"}, "T": {"type": "DT_FLOAT"}}}, {"name": "model_101/tf.math.add_247/Add", "op": "_FusedConv2D", "input": ["model_101/tf.concat_55/concat", "model_101/tf.nn.convolution_209/convolution/filter", "model_101/tf.math.add_247/Add/y"], "device": "/device:CPU:0", "attr": {"dilations": {"list": {"i": ["1", "1", "1", "1"]}}, "num_args": {"i": "1"}, "use_cudnn_on_gpu": {"b": true}, "leakyrelu_alpha": {"f": 0.2}, "num_host_args": {"i": "0"}, "filter_format": {"s": "SFdJTw=="}, "epsilon": {"f": 0.0}, "data_format": {"s": "TkhXQw=="}, "explicit_paddings": {"list": {}}, "fused_ops": {"list": {"s": ["Qmlhc0FkZA=="]}}, "T": {"type": "DT_FLOAT"}, "padding": {"s": "U0FNRQ=="}, "TArgs": {"list": {"type": ["DT_FLOAT"]}}, "strides": {"list": {"i": ["1", "1", "1", "1"]}}}}, {"name": "model_101/tf.math.sigmoid_159/Sigmoid", "op": "Sigmoid", "input": ["model_101/tf.math.add_247/Add"], "attr": {"T": {"type": "DT_FLOAT"}}}, {"name": "model_101/tf.math.multiply_693/Mul", "op": "Mul", "input": ["model_101/tf.math.add_247/Add", "model_101/tf.math.sigmoid_159/Sigmoid"], "attr": {"T": {"type": "DT_FLOAT"}}}, {"name": "model_101/tf.math.add_249/Add", "op": "_FusedConv2D", "input": ["model_101/tf.math.multiply_693/Mul", "model_101/tf.nn.convolution_211/convolution/filter", "model_101/tf.math.add_249/Add/y"], "device": "/device:CPU:0", "attr": {"leakyrelu_alpha": {"f": 0.2}, "TArgs": {"list": {"type": ["DT_FLOAT"]}}, "dilations": {"list": {"i": ["1", "1", "1", "1"]}}, "padding": {"s": "U0FNRQ=="}, "filter_format": {"s": "SFdJTw=="}, "strides": {"list": {"i": ["1", "1", "1", "1"]}}, "num_args": {"i": "1"}, "num_host_args": {"i": "0"}, "explicit_paddings": {"list": {}}, "data_format": {"s": "TkhXQw=="}, "epsilon": {"f": 0.0}, "T": {"type": "DT_FLOAT"}, "use_cudnn_on_gpu": {"b": true}, "fused_ops": {"list": {"s": ["Qmlhc0FkZA=="]}}}}, {"name": "model_101/tf.math.add_250/Add", "op": "_FusedConv2D", "input": ["model_101/tf.math.multiply_693/Mul", "model_101/tf.nn.convolution_212/convolution/filter", "model_101/tf.math.add_250/Add/y"], "device": "/device:CPU:0", "attr": {"padding": {"s": "U0FNRQ=="}, "T": {"type": "DT_FLOAT"}, "strides": {"list": {"i": ["1", "1", "1", "1"]}}, "data_format": {"s": "TkhXQw=="}, "num_args": {"i": "1"}, "dilations": {"list": {"i": ["1", "1", "1", "1"]}}, "epsilon": {"f": 0.0}, "fused_ops": {"list": {"s": ["Qmlhc0FkZA=="]}}, "num_host_args": {"i": "0"}, "TArgs": {"list": {"type": ["DT_FLOAT"]}}, "use_cudnn_on_gpu": {"b": true}, "filter_format": {"s": "SFdJTw=="}, "explicit_paddings": {"list": {}}, "leakyrelu_alpha": {"f": 0.2}}}, {"name": "model_101/tf.compat.v1.pad_20/Pad", "op": "Pad", "input": ["model_101/tf.math.multiply_693/Mul", "model_101/tf.compat.v1.pad_20/Pad/paddings"], "attr": {"Tpaddings": {"type": "DT_INT32"}, "T": {"type": "DT_FLOAT"}}}, {"name": "model_101/tf.math.sigmoid_161/Sigmoid", "op": "Sigmoid", "input": ["model_101/tf.math.add_249/Add"], "attr": {"T": {"type": "DT_FLOAT"}}}, {"name": "model_101/tf.math.sigmoid_162/Sigmoid", "op": "Sigmoid", "input": ["model_101/tf.math.add_250/Add"], "attr": {"T": {"type": "DT_FLOAT"}}}, {"name": "model_101/tf.math.add_248/Add", "op": "_FusedConv2D", "input": ["model_101/tf.compat.v1.pad_20/Pad", "model_101/tf.nn.convolution_210/convolution/filter", "model_101/tf.math.add_248/Add/y"], "device": "/device:CPU:0", "attr": {"filter_format": {"s": "SFdJTw=="}, "num_args": {"i": "1"}, "explicit_paddings": {"list": {}}, "T": {"type": "DT_FLOAT"}, "strides": {"list": {"i": ["1", "2", "2", "1"]}}, "leakyrelu_alpha": {"f": 0.2}, "use_cudnn_on_gpu": {"b": true}, "epsilon": {"f": 0.0}, "fused_ops": {"list": {"s": ["Qmlhc0FkZA=="]}}, "padding": {"s": "VkFMSUQ="}, "num_host_args": {"i": "0"}, "dilations": {"list": {"i": ["1", "1", "1", "1"]}}, "TArgs": {"list": {"type": ["DT_FLOAT"]}}, "data_format": {"s": "TkhXQw=="}}}, {"name": "model_101/tf.math.multiply_701/Mul", "op": "Mul", "input": ["model_101/tf.math.add_249/Add", "model_101/tf.math.sigmoid_161/Sigmoid"], "attr": {"T": {"type": "DT_FLOAT"}}}, {"name": "model_101/tf.math.multiply_705/Mul", "op": "Mul", "input": ["model_101/tf.math.add_250/Add", "model_101/tf.math.sigmoid_162/Sigmoid"], "attr": {"T": {"type": "DT_FLOAT"}}}, {"name": "model_101/tf.math.sigmoid_160/Sigmoid", "op": "Sigmoid", "input": ["model_101/tf.math.add_248/Add"], "attr": {"T": {"type": "DT_FLOAT"}}}, {"name": "model_101/tf.math.add_251/Add", "op": "_FusedConv2D", "input": ["model_101/tf.math.multiply_701/Mul", "model_101/tf.nn.convolution_213/convolution/filter", "model_101/tf.math.add_251/Add/y"], "device": "/device:CPU:0", "attr": {"num_host_args": {"i": "0"}, "dilations": {"list": {"i": ["1", "1", "1", "1"]}}, "fused_ops": {"list": {"s": ["Qmlhc0FkZA=="]}}, "TArgs": {"list": {"type": ["DT_FLOAT"]}}, "strides": {"list": {"i": ["1", "1", "1", "1"]}}, "leakyrelu_alpha": {"f": 0.2}, "data_format": {"s": "TkhXQw=="}, "padding": {"s": "U0FNRQ=="}, "T": {"type": "DT_FLOAT"}, "explicit_paddings": {"list": {}}, "filter_format": {"s": "SFdJTw=="}, "epsilon": {"f": 0.0}, "num_args": {"i": "1"}, "use_cudnn_on_gpu": {"b": true}}}, {"name": "model_101/tf.math.add_252/Add", "op": "_FusedConv2D", "input": ["model_101/tf.math.multiply_705/Mul", "model_101/tf.nn.convolution_214/convolution/filter", "model_101/tf.math.add_252/Add/y"], "device": "/device:CPU:0", "attr": {"data_format": {"s": "TkhXQw=="}, "num_host_args": {"i": "0"}, "num_args": {"i": "1"}, "fused_ops": {"list": {"s": ["Qmlhc0FkZA=="]}}, "leakyrelu_alpha": {"f": 0.2}, "TArgs": {"list": {"type": ["DT_FLOAT"]}}, "padding": {"s": "U0FNRQ=="}, "epsilon": {"f": 0.0}, "strides": {"list": {"i": ["1", "1", "1", "1"]}}, "use_cudnn_on_gpu": {"b": true}, "filter_format": {"s": "SFdJTw=="}, "T": {"type": "DT_FLOAT"}, "explicit_paddings": {"list": {}}, "dilations": {"list": {"i": ["1", "1", "1", "1"]}}}}, {"name": "model_101/tf.math.multiply_697/Mul", "op": "Mul", "input": ["model_101/tf.math.add_248/Add", "model_101/tf.math.sigmoid_160/Sigmoid"], "attr": {"T": {"type": "DT_FLOAT"}}}, {"name": "model_101/tf.math.sigmoid_163/Sigmoid", "op": "Sigmoid", "input": ["model_101/tf.math.add_251/Add"], "attr": {"T": {"type": "DT_FLOAT"}}}, {"name": "model_101/tf.math.sigmoid_164/Sigmoid", "op": "Sigmoid", "input": ["model_101/tf.math.add_252/Add"], "attr": {"T": {"type": "DT_FLOAT"}}}, {"name": "model_101/tf.concat_56/concat", "op": "ConcatV2", "input": ["model_101/tf.math.multiply_697/Mul", "model_101/tf.math.multiply_625/Mul", "model_101/tf.concat_56/concat/axis"], "attr": {"T": {"type": "DT_FLOAT"}, "Tidx": {"type": "DT_INT32"}, "N": {"i": "2"}}}, {"name": "model_101/tf.math.multiply_709/Mul", "op": "Mul", "input": ["model_101/tf.math.add_251/Add", "model_101/tf.math.sigmoid_163/Sigmoid"], "attr": {"T": {"type": "DT_FLOAT"}}}, {"name": "model_101/tf.math.multiply_713/Mul", "op": "Mul", "input": ["model_101/tf.math.add_252/Add", "model_101/tf.math.sigmoid_164/Sigmoid"], "attr": {"T": {"type": "DT_FLOAT"}}}, {"name": "model_101/tf.math.add_253/Add", "op": "_FusedConv2D", "input": ["model_101/tf.concat_56/concat", "model_101/tf.nn.convolution_215/convolution/filter", "model_101/tf.math.add_253/Add/y"], "device": "/device:CPU:0", "attr": {"num_args": {"i": "1"}, "leakyrelu_alpha": {"f": 0.2}, "strides": {"list": {"i": ["1", "1", "1", "1"]}}, "padding": {"s": "U0FNRQ=="}, "dilations": {"list": {"i": ["1", "1", "1", "1"]}}, "TArgs": {"list": {"type": ["DT_FLOAT"]}}, "epsilon": {"f": 0.0}, "fused_ops": {"list": {"s": ["Qmlhc0FkZA=="]}}, "T": {"type": "DT_FLOAT"}, "num_host_args": {"i": "0"}, "data_format": {"s": "TkhXQw=="}, "explicit_paddings": {"list": {}}, "use_cudnn_on_gpu": {"b": true}, "filter_format": {"s": "SFdJTw=="}}}, {"name": "model_101/tf.math.add_254/Add", "op": "_FusedConv2D", "input": ["model_101/tf.math.multiply_709/Mul", "model_101/tf.nn.convolution_216/convolution/filter", "model_101/tf.math.add_254/Add/y"], "device": "/device:CPU:0", "attr": {"num_args": {"i": "1"}, "num_host_args": {"i": "0"}, "padding": {"s": "U0FNRQ=="}, "data_format": {"s": "TkhXQw=="}, "TArgs": {"list": {"type": ["DT_FLOAT"]}}, "dilations": {"list": {"i": ["1", "1", "1", "1"]}}, "strides": {"list": {"i": ["1", "1", "1", "1"]}}, "use_cudnn_on_gpu": {"b": true}, "leakyrelu_alpha": {"f": 0.2}, "filter_format": {"s": "SFdJTw=="}, "fused_ops": {"list": {"s": ["Qmlhc0FkZA=="]}}, "epsilon": {"f": 0.0}, "T": {"type": "DT_FLOAT"}, "explicit_paddings": {"list": {}}}}, {"name": "model_101/tf.math.add_255/Add", "op": "_FusedConv2D", "input": ["model_101/tf.math.multiply_713/Mul", "model_101/tf.nn.convolution_217/convolution/filter", "model_101/tf.math.add_255/Add/y"], "device": "/device:CPU:0", "attr": {"data_format": {"s": "TkhXQw=="}, "filter_format": {"s": "SFdJTw=="}, "padding": {"s": "U0FNRQ=="}, "strides": {"list": {"i": ["1", "1", "1", "1"]}}, "TArgs": {"list": {"type": ["DT_FLOAT"]}}, "num_host_args": {"i": "0"}, "dilations": {"list": {"i": ["1", "1", "1", "1"]}}, "epsilon": {"f": 0.0}, "use_cudnn_on_gpu": {"b": true}, "explicit_paddings": {"list": {}}, "leakyrelu_alpha": {"f": 0.2}, "num_args": {"i": "1"}, "fused_ops": {"list": {"s": ["Qmlhc0FkZA=="]}}, "T": {"type": "DT_FLOAT"}}}, {"name": "model_101/tf.math.sigmoid_165/Sigmoid", "op": "Sigmoid", "input": ["model_101/tf.math.add_253/Add"], "attr": {"T": {"type": "DT_FLOAT"}}}, {"name": "model_101/tf.concat_57/concat", "op": "ConcatV2", "input": ["model_101/tf.math.add_254/Add", "model_101/tf.math.add_255/Add", "model_101/tf.concat_57/concat/axis"], "attr": {"T": {"type": "DT_FLOAT"}, "N": {"i": "2"}, "Tidx": {"type": "DT_INT32"}}}, {"name": "model_101/tf.math.multiply_717/Mul", "op": "Mul", "input": ["model_101/tf.math.add_253/Add", "model_101/tf.math.sigmoid_165/Sigmoid"], "attr": {"T": {"type": "DT_FLOAT"}}}, {"name": "model_101/tf.compat.v1.transpose_129/transpose", "op": "Transpose", "input": ["model_101/tf.concat_57/concat", "model_101/tf.compat.v1.transpose_129/transpose/perm"], "attr": {"Tperm": {"type": "DT_INT32"}, "T": {"type": "DT_FLOAT"}}}, {"name": "model_101/tf.strided_slice_54/StridedSlice", "op": "StridedSlice", "input": ["model_101/tf.math.multiply_717/Mul", "model_101/tf.strided_slice_54/ones_like/tensor", "model_101/tf.strided_slice_54/StridedSlice/end", "model_101/tf.strided_slice_54/ones_like"], "attr": {"shrink_axis_mask": {"i": "0"}, "ellipsis_mask": {"i": "0"}, "end_mask": {"i": "7"}, "T": {"type": "DT_FLOAT"}, "Index": {"type": "DT_INT64"}, "new_axis_mask": {"i": "0"}, "begin_mask": {"i": "15"}}}, {"name": "model_101/tf.strided_slice_55/StridedSlice", "op": "StridedSlice", "input": ["model_101/tf.math.multiply_717/Mul", "model_101/tf.strided_slice_55/ones_like/tensor", "model_101/tf.strided_slice_55/StridedSlice/end", "model_101/tf.strided_slice_55/ones_like"], "attr": {"ellipsis_mask": {"i": "0"}, "begin_mask": {"i": "7"}, "end_mask": {"i": "7"}, "T": {"type": "DT_FLOAT"}, "new_axis_mask": {"i": "0"}, "shrink_axis_mask": {"i": "0"}, "Index": {"type": "DT_INT64"}}}, {"name": "model_101/tf.reshape_35/Reshape", "op": "Reshape", "input": ["model_101/tf.compat.v1.transpose_129/transpose", "model_101/tf.reshape_35/Reshape/shape"], "attr": {"T": {"type": "DT_FLOAT"}, "Tshape": {"type": "DT_INT32"}}}, {"name": "model_101/tf.math.add_256/Add", "op": "_FusedConv2D", "input": ["model_101/tf.strided_slice_55/StridedSlice", "model_101/tf.nn.convolution_218/convolution/filter", "model_101/tf.math.add_256/Add/y"], "device": "/device:CPU:0", "attr": {"TArgs": {"list": {"type": ["DT_FLOAT"]}}, "strides": {"list": {"i": ["1", "1", "1", "1"]}}, "padding": {"s": "U0FNRQ=="}, "use_cudnn_on_gpu": {"b": true}, "T": {"type": "DT_FLOAT"}, "data_format": {"s": "TkhXQw=="}, "epsilon": {"f": 0.0}, "dilations": {"list": {"i": ["1", "1", "1", "1"]}}, "num_args": {"i": "1"}, "explicit_paddings": {"list": {}}, "fused_ops": {"list": {"s": ["Qmlhc0FkZA=="]}}, "filter_format": {"s": "SFdJTw=="}, "num_host_args": {"i": "0"}, "leakyrelu_alpha": {"f": 0.2}}}, {"name": "model_101/tf.math.sigmoid_166/Sigmoid", "op": "Sigmoid", "input": ["model_101/tf.math.add_256/Add"], "attr": {"T": {"type": "DT_FLOAT"}}}, {"name": "model_101/tf.math.multiply_721/Mul", "op": "Mul", "input": ["model_101/tf.math.add_256/Add", "model_101/tf.math.sigmoid_166/Sigmoid"], "attr": {"T": {"type": "DT_FLOAT"}}}, {"name": "model_101/tf.math.add_257/Add", "op": "_FusedConv2D", "input": ["model_101/tf.math.multiply_721/Mul", "model_101/tf.nn.convolution_219/convolution/filter", "model_101/tf.math.add_257/Add/y"], "device": "/device:CPU:0", "attr": {"num_args": {"i": "1"}, "data_format": {"s": "TkhXQw=="}, "epsilon": {"f": 0.0}, "padding": {"s": "U0FNRQ=="}, "dilations": {"list": {"i": ["1", "1", "1", "1"]}}, "strides": {"list": {"i": ["1", "1", "1", "1"]}}, "filter_format": {"s": "SFdJTw=="}, "fused_ops": {"list": {"s": ["Qmlhc0FkZA=="]}}, "use_cudnn_on_gpu": {"b": true}, "T": {"type": "DT_FLOAT"}, "leakyrelu_alpha": {"f": 0.2}, "num_host_args": {"i": "0"}, "TArgs": {"list": {"type": ["DT_FLOAT"]}}, "explicit_paddings": {"list": {}}}}, {"name": "model_101/tf.math.sigmoid_167/Sigmoid", "op": "Sigmoid", "input": ["model_101/tf.math.add_257/Add"], "attr": {"T": {"type": "DT_FLOAT"}}}, {"name": "model_101/tf.math.multiply_725/Mul", "op": "Mul", "input": ["model_101/tf.math.add_257/Add", "model_101/tf.math.sigmoid_167/Sigmoid"], "attr": {"T": {"type": "DT_FLOAT"}}}, {"name": "model_101/tf.concat_58/concat", "op": "ConcatV2", "input": ["model_101/tf.strided_slice_54/StridedSlice", "model_101/tf.strided_slice_55/StridedSlice", "model_101/tf.math.multiply_725/Mul", "model_101/tf.concat_58/concat/axis"], "attr": {"N": {"i": "3"}, "T": {"type": "DT_FLOAT"}, "Tidx": {"type": "DT_INT32"}}}, {"name": "model_101/tf.math.add_258/Add", "op": "_FusedConv2D", "input": ["model_101/tf.concat_58/concat", "model_101/tf.nn.convolution_220/convolution/filter", "model_101/tf.math.add_258/Add/y"], "device": "/device:CPU:0", "attr": {"TArgs": {"list": {"type": ["DT_FLOAT"]}}, "epsilon": {"f": 0.0}, "explicit_paddings": {"list": {}}, "filter_format": {"s": "SFdJTw=="}, "strides": {"list": {"i": ["1", "1", "1", "1"]}}, "fused_ops": {"list": {"s": ["Qmlhc0FkZA=="]}}, "T": {"type": "DT_FLOAT"}, "data_format": {"s": "TkhXQw=="}, "padding": {"s": "U0FNRQ=="}, "num_host_args": {"i": "0"}, "num_args": {"i": "1"}, "leakyrelu_alpha": {"f": 0.2}, "dilations": {"list": {"i": ["1", "1", "1", "1"]}}, "use_cudnn_on_gpu": {"b": true}}}, {"name": "model_101/tf.math.sigmoid_168/Sigmoid", "op": "Sigmoid", "input": ["model_101/tf.math.add_258/Add"], "attr": {"T": {"type": "DT_FLOAT"}}}, {"name": "model_101/tf.math.multiply_729/Mul", "op": "Mul", "input": ["model_101/tf.math.add_258/Add", "model_101/tf.math.sigmoid_168/Sigmoid"], "attr": {"T": {"type": "DT_FLOAT"}}}, {"name": "model_101/tf.math.add_259/Add", "op": "_FusedConv2D", "input": ["model_101/tf.math.multiply_729/Mul", "model_101/tf.nn.convolution_221/convolution/filter", "model_101/tf.math.add_259/Add/y"], "device": "/device:CPU:0", "attr": {"dilations": {"list": {"i": ["1", "1", "1", "1"]}}, "T": {"type": "DT_FLOAT"}, "filter_format": {"s": "SFdJTw=="}, "TArgs": {"list": {"type": ["DT_FLOAT"]}}, "strides": {"list": {"i": ["1", "1", "1", "1"]}}, "fused_ops": {"list": {"s": ["Qmlhc0FkZA=="]}}, "padding": {"s": "U0FNRQ=="}, "explicit_paddings": {"list": {}}, "leakyrelu_alpha": {"f": 0.2}, "num_args": {"i": "1"}, "epsilon": {"f": 0.0}, "num_host_args": {"i": "0"}, "data_format": {"s": "TkhXQw=="}, "use_cudnn_on_gpu": {"b": true}}}, {"name": "model_101/tf.math.add_260/Add", "op": "_FusedConv2D", "input": ["model_101/tf.math.multiply_729/Mul", "model_101/tf.nn.convolution_222/convolution/filter", "model_101/tf.math.add_260/Add/y"], "device": "/device:CPU:0", "attr": {"explicit_paddings": {"list": {}}, "epsilon": {"f": 0.0}, "dilations": {"list": {"i": ["1", "1", "1", "1"]}}, "padding": {"s": "U0FNRQ=="}, "T": {"type": "DT_FLOAT"}, "TArgs": {"list": {"type": ["DT_FLOAT"]}}, "fused_ops": {"list": {"s": ["Qmlhc0FkZA=="]}}, "num_host_args": {"i": "0"}, "use_cudnn_on_gpu": {"b": true}, "data_format": {"s": "TkhXQw=="}, "filter_format": {"s": "SFdJTw=="}, "strides": {"list": {"i": ["1", "1", "1", "1"]}}, "leakyrelu_alpha": {"f": 0.2}, "num_args": {"i": "1"}}}, {"name": "model_101/tf.math.sigmoid_169/Sigmoid", "op": "Sigmoid", "input": ["model_101/tf.math.add_259/Add"], "attr": {"T": {"type": "DT_FLOAT"}}}, {"name": "model_101/tf.math.sigmoid_170/Sigmoid", "op": "Sigmoid", "input": ["model_101/tf.math.add_260/Add"], "attr": {"T": {"type": "DT_FLOAT"}}}, {"name": "model_101/tf.math.multiply_733/Mul", "op": "Mul", "input": ["model_101/tf.math.add_259/Add", "model_101/tf.math.sigmoid_169/Sigmoid"], "attr": {"T": {"type": "DT_FLOAT"}}}, {"name": "model_101/tf.math.multiply_737/Mul", "op": "Mul", "input": ["model_101/tf.math.add_260/Add", "model_101/tf.math.sigmoid_170/Sigmoid"], "attr": {"T": {"type": "DT_FLOAT"}}}, {"name": "model_101/tf.math.add_261/Add", "op": "_FusedConv2D", "input": ["model_101/tf.math.multiply_733/Mul", "model_101/tf.nn.convolution_223/convolution/filter", "model_101/tf.math.add_261/Add/y"], "device": "/device:CPU:0", "attr": {"leakyrelu_alpha": {"f": 0.2}, "TArgs": {"list": {"type": ["DT_FLOAT"]}}, "explicit_paddings": {"list": {}}, "T": {"type": "DT_FLOAT"}, "use_cudnn_on_gpu": {"b": true}, "strides": {"list": {"i": ["1", "1", "1", "1"]}}, "num_args": {"i": "1"}, "epsilon": {"f": 0.0}, "data_format": {"s": "TkhXQw=="}, "padding": {"s": "U0FNRQ=="}, "filter_format": {"s": "SFdJTw=="}, "fused_ops": {"list": {"s": ["Qmlhc0FkZA=="]}}, "num_host_args": {"i": "0"}, "dilations": {"list": {"i": ["1", "1", "1", "1"]}}}}, {"name": "model_101/tf.math.add_262/Add", "op": "_FusedConv2D", "input": ["model_101/tf.math.multiply_737/Mul", "model_101/tf.nn.convolution_224/convolution/filter", "model_101/tf.math.add_262/Add/y"], "device": "/device:CPU:0", "attr": {"data_format": {"s": "TkhXQw=="}, "num_args": {"i": "1"}, "TArgs": {"list": {"type": ["DT_FLOAT"]}}, "strides": {"list": {"i": ["1", "1", "1", "1"]}}, "dilations": {"list": {"i": ["1", "1", "1", "1"]}}, "fused_ops": {"list": {"s": ["Qmlhc0FkZA=="]}}, "epsilon": {"f": 0.0}, "filter_format": {"s": "SFdJTw=="}, "T": {"type": "DT_FLOAT"}, "num_host_args": {"i": "0"}, "leakyrelu_alpha": {"f": 0.2}, "use_cudnn_on_gpu": {"b": true}, "explicit_paddings": {"list": {}}, "padding": {"s": "U0FNRQ=="}}}, {"name": "model_101/tf.math.sigmoid_171/Sigmoid", "op": "Sigmoid", "input": ["model_101/tf.math.add_261/Add"], "attr": {"T": {"type": "DT_FLOAT"}}}, {"name": "model_101/tf.math.sigmoid_172/Sigmoid", "op": "Sigmoid", "input": ["model_101/tf.math.add_262/Add"], "attr": {"T": {"type": "DT_FLOAT"}}}, {"name": "model_101/tf.math.multiply_741/Mul", "op": "Mul", "input": ["model_101/tf.math.add_261/Add", "model_101/tf.math.sigmoid_171/Sigmoid"], "attr": {"T": {"type": "DT_FLOAT"}}}, {"name": "model_101/tf.math.multiply_745/Mul", "op": "Mul", "input": ["model_101/tf.math.add_262/Add", "model_101/tf.math.sigmoid_172/Sigmoid"], "attr": {"T": {"type": "DT_FLOAT"}}}, {"name": "model_101/tf.math.add_263/Add", "op": "_FusedConv2D", "input": ["model_101/tf.math.multiply_741/Mul", "model_101/tf.nn.convolution_225/convolution/filter", "model_101/tf.math.add_263/Add/y"], "device": "/device:CPU:0", "attr": {"explicit_paddings": {"list": {}}, "use_cudnn_on_gpu": {"b": true}, "leakyrelu_alpha": {"f": 0.2}, "num_host_args": {"i": "0"}, "num_args": {"i": "1"}, "dilations": {"list": {"i": ["1", "1", "1", "1"]}}, "strides": {"list": {"i": ["1", "1", "1", "1"]}}, "data_format": {"s": "TkhXQw=="}, "filter_format": {"s": "SFdJTw=="}, "padding": {"s": "U0FNRQ=="}, "T": {"type": "DT_FLOAT"}, "fused_ops": {"list": {"s": ["Qmlhc0FkZA=="]}}, "epsilon": {"f": 0.0}, "TArgs": {"list": {"type": ["DT_FLOAT"]}}}}, {"name": "model_101/tf.math.add_264/Add", "op": "_FusedConv2D", "input": ["model_101/tf.math.multiply_745/Mul", "model_101/tf.nn.convolution_226/convolution/filter", "model_101/tf.math.add_264/Add/y"], "device": "/device:CPU:0", "attr": {"TArgs": {"list": {"type": ["DT_FLOAT"]}}, "num_host_args": {"i": "0"}, "strides": {"list": {"i": ["1", "1", "1", "1"]}}, "data_format": {"s": "TkhXQw=="}, "T": {"type": "DT_FLOAT"}, "num_args": {"i": "1"}, "fused_ops": {"list": {"s": ["Qmlhc0FkZA=="]}}, "dilations": {"list": {"i": ["1", "1", "1", "1"]}}, "explicit_paddings": {"list": {}}, "epsilon": {"f": 0.0}, "leakyrelu_alpha": {"f": 0.2}, "use_cudnn_on_gpu": {"b": true}, "padding": {"s": "U0FNRQ=="}, "filter_format": {"s": "SFdJTw=="}}}, {"name": "model_101/tf.concat_59/concat", "op": "ConcatV2", "input": ["model_101/tf.math.add_263/Add", "model_101/tf.math.add_264/Add", "model_101/tf.concat_59/concat/axis"], "attr": {"Tidx": {"type": "DT_INT32"}, "N": {"i": "2"}, "T": {"type": "DT_FLOAT"}}}, {"name": "model_101/tf.compat.v1.transpose_134/transpose", "op": "Transpose", "input": ["model_101/tf.concat_59/concat", "model_101/tf.compat.v1.transpose_134/transpose/perm"], "attr": {"T": {"type": "DT_FLOAT"}, "Tperm": {"type": "DT_INT32"}}}, {"name": "model_101/tf.reshape_38/Reshape", "op": "Reshape", "input": ["model_101/tf.compat.v1.transpose_134/transpose", "model_101/tf.reshape_38/Reshape/shape"], "attr": {"Tshape": {"type": "DT_INT32"}, "T": {"type": "DT_FLOAT"}}}, {"name": "model_101/tf.concat_60/concat", "op": "ConcatV2", "input": ["model_101/tf.reshape_32/Reshape", "model_101/tf.reshape_35/Reshape", "model_101/tf.reshape_38/Reshape", "model_101/tf.concat_60/concat/axis"], "attr": {"N": {"i": "3"}, "T": {"type": "DT_FLOAT"}, "Tidx": {"type": "DT_INT32"}}}, {"name": "model_101/tf.strided_slice_57/StridedSlice", "op": "StridedSlice", "input": ["model_101/tf.concat_60/concat", "model_101/tf.strided_slice_57/StridedSlice/begin", "model_101/tf.strided_slice_57/StridedSlice/end", "model_101/tf.strided_slice_57/StridedSlice/strides"], "attr": {"end_mask": {"i": "5"}, "T": {"type": "DT_FLOAT"}, "new_axis_mask": {"i": "0"}, "shrink_axis_mask": {"i": "0"}, "begin_mask": {"i": "5"}, "ellipsis_mask": {"i": "0"}, "Index": {"type": "DT_INT64"}}}, {"name": "model_101/tf.strided_slice_56/StridedSlice", "op": "StridedSlice", "input": ["model_101/tf.concat_60/concat", "model_101/tf.strided_slice_56/StridedSlice/begin", "model_101/tf.strided_slice_56/StridedSlice/end", "model_101/tf.strided_slice_56/StridedSlice/strides"], "attr": {"begin_mask": {"i": "7"}, "end_mask": {"i": "5"}, "ellipsis_mask": {"i": "0"}, "Index": {"type": "DT_INT64"}, "shrink_axis_mask": {"i": "0"}, "new_axis_mask": {"i": "0"}, "T": {"type": "DT_FLOAT"}}}, {"name": "model_101/tf.math.sigmoid_173/Sigmoid", "op": "Sigmoid", "input": ["model_101/tf.strided_slice_57/StridedSlice"], "attr": {"T": {"type": "DT_FLOAT"}}}, {"name": "model_101/tf.reshape_41/Reshape", "op": "Reshape", "input": ["model_101/tf.strided_slice_56/StridedSlice", "model_101/tf.reshape_41/Reshape/shape"], "attr": {"T": {"type": "DT_FLOAT"}, "Tshape": {"type": "DT_INT32"}}}, {"name": "model_101/tf.compat.v1.transpose_141/transpose", "op": "Transpose", "input": ["model_101/tf.reshape_41/Reshape", "model_101/tf.compat.v1.transpose_141/transpose/perm"], "attr": {"T": {"type": "DT_FLOAT"}, "Tperm": {"type": "DT_INT32"}}}, {"name": "model_101/tf.compat.v1.transpose_142/transpose", "op": "Transpose", "input": ["model_101/tf.compat.v1.transpose_141/transpose", "model_101/tf.compat.v1.transpose_142/transpose/perm"], "attr": {"T": {"type": "DT_FLOAT"}, "Tperm": {"type": "DT_INT32"}}}, {"name": "model_101/tf.nn.softmax_2/wa/model.22/dfl/Softmax", "op": "Softmax", "input": ["model_101/tf.compat.v1.transpose_142/transpose"], "attr": {"T": {"type": "DT_FLOAT"}}}, {"name": "model_101/tf.nn.convolution_227/convolution", "op": "Conv2D", "input": ["model_101/tf.nn.softmax_2/wa/model.22/dfl/Softmax", "model_101/tf.nn.convolution_227/convolution/filter"], "device": "/device:CPU:0", "attr": {"padding": {"s": "U0FNRQ=="}, "dilations": {"list": {"i": ["1", "1", "1", "1"]}}, "T": {"type": "DT_FLOAT"}, "strides": {"list": {"i": ["1", "1", "1", "1"]}}, "explicit_paddings": {"list": {}}, "data_format": {"s": "TkhXQw=="}, "use_cudnn_on_gpu": {"b": true}}}, {"name": "model_101/tf.compat.v1.transpose_147/transpose", "op": "Transpose", "input": ["model_101/tf.nn.convolution_227/convolution", "model_101/tf.compat.v1.transpose_147/transpose/perm"], "attr": {"Tperm": {"type": "DT_INT32"}, "T": {"type": "DT_FLOAT"}}}, {"name": "model_101/tf.reshape_44/Reshape", "op": "Reshape", "input": ["model_101/tf.compat.v1.transpose_147/transpose", "model_101/tf.reshape_44/Reshape/shape"], "attr": {"Tshape": {"type": "DT_INT32"}, "T": {"type": "DT_FLOAT"}}}, {"name": "model_101/tf.strided_slice_59/StridedSlice", "op": "StridedSlice", "input": ["model_101/tf.reshape_44/Reshape", "model_101/tf.strided_slice_59/ones_like/tensor", "model_101/tf.strided_slice_59/StridedSlice/end", "model_101/tf.strided_slice_59/ones_like"], "attr": {"new_axis_mask": {"i": "0"}, "ellipsis_mask": {"i": "0"}, "shrink_axis_mask": {"i": "0"}, "begin_mask": {"i": "5"}, "T": {"type": "DT_FLOAT"}, "Index": {"type": "DT_INT64"}, "end_mask": {"i": "5"}}}, {"name": "model_101/tf.strided_slice_58/StridedSlice", "op": "StridedSlice", "input": ["model_101/tf.reshape_44/Reshape", "model_101/tf.strided_slice_58/ones_like/tensor", "model_101/tf.strided_slice_58/StridedSlice/end", "model_101/tf.strided_slice_58/ones_like"], "attr": {"end_mask": {"i": "5"}, "begin_mask": {"i": "7"}, "ellipsis_mask": {"i": "0"}, "T": {"type": "DT_FLOAT"}, "Index": {"type": "DT_INT64"}, "shrink_axis_mask": {"i": "0"}, "new_axis_mask": {"i": "0"}}}, {"name": "model_101/tf.math.add_265/Add", "op": "AddV2", "input": ["model_101/92054", "model_101/tf.strided_slice_59/StridedSlice"], "attr": {"T": {"type": "DT_FLOAT"}}}, {"name": "model_101/tf.math.subtract_4/Sub", "op": "Sub", "input": ["model_101/92057", "model_101/tf.strided_slice_58/StridedSlice"], "attr": {"T": {"type": "DT_FLOAT"}}}, {"name": "model_101/tf.math.add_266/Add", "op": "AddV2", "input": ["model_101/tf.math.subtract_4/Sub", "model_101/tf.math.add_265/Add"], "attr": {"T": {"type": "DT_FLOAT"}}}, {"name": "model_101/tf.math.subtract_5/Sub", "op": "Sub", "input": ["model_101/tf.math.add_265/Add", "model_101/tf.math.subtract_4/Sub"], "attr": {"T": {"type": "DT_FLOAT"}}}, {"name": "model_101/tf.math.divide_2/truediv", "op": "Mul", "input": ["model_101/tf.math.add_266/Add", "ConstantFolding/model_101/tf.math.divide_2/truediv_recip"], "attr": {"T": {"type": "DT_FLOAT"}}}, {"name": "model_101/tf.concat_64/concat", "op": "ConcatV2", "input": ["model_101/tf.math.divide_2/truediv", "model_101/tf.math.subtract_5/Sub", "model_101/tf.concat_64/concat/axis"], "attr": {"N": {"i": "2"}, "T": {"type": "DT_FLOAT"}, "Tidx": {"type": "DT_INT32"}}}, {"name": "model_101/tf.math.multiply_758/Mul", "op": "Mul", "input": ["model_101/tf.concat_64/concat", "model_101/tf.math.multiply_758/Mul/y"], "attr": {"T": {"type": "DT_FLOAT"}}}, {"name": "model_101/output0/concat", "op": "ConcatV2", "input": ["model_101/tf.math.multiply_758/Mul", "model_101/tf.math.sigmoid_173/Sigmoid", "model_101/output0/concat/axis"], "attr": {"T": {"type": "DT_FLOAT"}, "N": {"i": "2"}, "Tidx": {"type": "DT_INT32"}}}, {"name": "Identity", "op": "Identity", "input": ["model_101/output0/concat"], "attr": {"T": {"type": "DT_FLOAT"}}}], "library": {}, "versions": {"producer": 1766}}, "weightsManifest": [{"paths": ["group1-shard1of1.bin"], "weights": [{"name": "ConstantFolding/model_101/tf.math.divide_2/truediv_recip", "shape": [1, 1, 1], "dtype": "float32", "quantization": {"dtype": "uint8", "min": 0.5, "scale": 1.0, "original_dtype": "float32"}}, {"name": "model_101/92054", "shape": [1, 2, 1344], "dtype": "float32", "quantization": {"dtype": "uint8", "min": 0.5, "scale": 0.12156862745098039, "original_dtype": "float32"}}, {"name": "model_101/tf.strided_slice_59/ones_like/tensor", "shape": [3], "dtype": "int32"}, {"name": "model_101/tf.strided_slice_59/StridedSlice/end", "shape": [3], "dtype": "int32"}, {"name": "model_101/tf.strided_slice_59/ones_like", "shape": [3], "dtype": "int32"}, {"name": "model_101/92057", "shape": [1, 2, 1344], "dtype": "float32", "quantization": {"dtype": "uint8", "min": 0.5, "scale": 0.12156862745098039, "original_dtype": "float32"}}, {"name": "model_101/tf.strided_slice_56/StridedSlice/begin", "shape": [3], "dtype": "int32"}, {"name": "model_101/tf.strided_slice_56/StridedSlice/end", "shape": [3], "dtype": "int32"}, {"name": "model_101/tf.strided_slice_56/StridedSlice/strides", "shape": [3], "dtype": "int32"}, {"name": "model_101/tf.reshape_41/Reshape/shape", "shape": [4], "dtype": "int32"}, {"name": "model_101/tf.compat.v1.transpose_141/transpose/perm", "shape": [4], "dtype": "int32"}, {"name": "model_101/tf.compat.v1.transpose_142/transpose/perm", "shape": [4], "dtype": "int32"}, {"name": "model_101/tf.nn.convolution_227/convolution/filter", "shape": [1, 1, 16, 1], "dtype": "float32", "quantization": {"dtype": "uint8", "min": -0.0, "scale": 0.058823529411764705, "original_dtype": "float32"}}, {"name": "model_101/tf.compat.v1.transpose_147/transpose/perm", "shape": [4], "dtype": "int32"}, {"name": "model_101/tf.reshape_44/Reshape/shape", "shape": [3], "dtype": "int32"}, {"name": "model_101/tf.strided_slice_58/ones_like/tensor", "shape": [3], "dtype": "int32"}, {"name": "model_101/tf.strided_slice_58/StridedSlice/end", "shape": [3], "dtype": "int32"}, {"name": "model_101/tf.strided_slice_58/ones_like", "shape": [3], "dtype": "int32"}, {"name": "model_101/tf.concat_64/concat/axis", "shape": [], "dtype": "int32"}, {"name": "model_101/tf.math.multiply_758/Mul/y", "shape": [1, 1, 1344], "dtype": "float32", "quantization": {"dtype": "uint8", "min": 8.0, "scale": 0.09411764705882353, "original_dtype": "float32"}}, {"name": "model_101/tf.nn.convolution_200/convolution/filter", "shape": [3, 3, 64, 64], "dtype": "float32", "quantization": {"dtype": "uint8", "min": -1.1677251247798695, "scale": 0.008165909963495591, "original_dtype": "float32"}}, {"name": "model_101/tf.math.add_238/Add/y", "shape": [64], "dtype": "float32", "quantization": {"dtype": "uint8", "min": -3.066553789026597, "scale": 0.02377173479865579, "original_dtype": "float32"}}, {"name": "model_101/tf.nn.convolution_202/convolution/filter", "shape": [3, 3, 64, 64], "dtype": "float32", "quantization": {"dtype": "uint8", "min": -4.556996201533897, "scale": 0.031212302750232172, "original_dtype": "float32"}}, {"name": "model_101/tf.math.add_240/Add/y", "shape": [64], "dtype": "float32", "quantization": {"dtype": "uint8", "min": -5.0807085037231445, "scale": 0.04198932647705078, "original_dtype": "float32"}}, {"name": "model_101/tf.nn.convolution_205/convolution/filter", "shape": [1, 1, 64, 64], "dtype": "float32", "quantization": {"dtype": "uint8", "min": -0.29037415747549017, "scale": 0.0022336473651960783, "original_dtype": "float32"}}, {"name": "model_101/tf.math.add_243/Add/y", "shape": [64], "dtype": "float32", "quantization": {"dtype": "uint8", "min": -2.032996323529412, "scale": 0.020128676470588237, "original_dtype": "float32"}}, {"name": "model_101/tf.nn.convolution_201/convolution/filter", "shape": [3, 3, 64, 100], "dtype": "float32", "quantization": {"dtype": "uint8", "min": -1.254792012420355, "scale": 0.0076981105056463505, "original_dtype": "float32"}}, {"name": "model_101/tf.math.add_239/Add/y", "shape": [100], "dtype": "float32", "quantization": {"dtype": "uint8", "min": -5.439108433442957, "scale": 0.04990007737103631, "original_dtype": "float32"}}, {"name": "model_101/tf.nn.convolution_203/convolution/filter", "shape": [3, 3, 100, 100], "dtype": "float32", "quantization": {"dtype": "uint8", "min": -6.7450146207622454, "scale": 0.051884727852017275, "original_dtype": "float32"}}, {"name": "model_101/tf.math.add_241/Add/y", "shape": [100], "dtype": "float32", "quantization": {"dtype": "uint8", "min": -9.19547083237592, "scale": 0.09578615450391582, "original_dtype": "float32"}}, {"name": "model_101/tf.nn.convolution_206/convolution/filter", "shape": [1, 1, 100, 601], "dtype": "float32", "quantization": {"dtype": "uint8", "min": -0.2589269301470588, "scale": 0.0020881204044117647, "original_dtype": "float32"}}, {"name": "model_101/tf.math.add_244/Add/y", "shape": [601], "dtype": "float32", "quantization": {"dtype": "uint8", "min": -14.953125, "scale": 0.04284620098039216, "original_dtype": "float32"}}, {"name": "model_101/tf.concat_54/concat/axis", "shape": [], "dtype": "int32"}, {"name": "model_101/tf.compat.v1.transpose_124/transpose/perm", "shape": [4], "dtype": "int32"}, {"name": "model_101/tf.reshape_32/Reshape/shape", "shape": [3], "dtype": "int32"}, {"name": "model_101/tf.nn.convolution_211/convolution/filter", "shape": [3, 3, 128, 64], "dtype": "float32", "quantization": {"dtype": "uint8", "min": -2.209857297644896, "scale": 0.010994314913656197, "original_dtype": "float32"}}, {"name": "model_101/tf.math.add_249/Add/y", "shape": [64], "dtype": "float32", "quantization": {"dtype": "uint8", "min": -2.864399704278684, "scale": 0.020459997887704886, "original_dtype": "float32"}}, {"name": "model_101/tf.nn.convolution_213/convolution/filter", "shape": [3, 3, 64, 64], "dtype": "float32", "quantization": {"dtype": "uint8", "min": -2.920685211817424, "scale": 0.02413789431254069, "original_dtype": "float32"}}, {"name": "model_101/tf.math.add_251/Add/y", "shape": [64], "dtype": "float32", "quantization": {"dtype": "uint8", "min": -1.9073216924480365, "scale": 0.032884856766345456, "original_dtype": "float32"}}, {"name": "model_101/tf.nn.convolution_216/convolution/filter", "shape": [1, 1, 64, 64], "dtype": "float32", "quantization": {"dtype": "uint8", "min": -0.25237534466911765, "scale": 0.0021570542279411766, "original_dtype": "float32"}}, {"name": "model_101/tf.math.add_254/Add/y", "shape": [64], "dtype": "float32", "quantization": {"dtype": "uint8", "min": -1.5692325367647058, "scale": 0.0168734681372549, "original_dtype": "float32"}}, {"name": "model_101/tf.nn.convolution_212/convolution/filter", "shape": [3, 3, 128, 100], "dtype": "float32", "quantization": {"dtype": "uint8", "min": -1.7520438554240207, "scale": 0.009031153893938252, "original_dtype": "float32"}}, {"name": "model_101/tf.math.add_250/Add/y", "shape": [100], "dtype": "float32", "quantization": {"dtype": "uint8", "min": -3.7556176213657153, "scale": 0.026263060289270737, "original_dtype": "float32"}}, {"name": "model_101/tf.nn.convolution_214/convolution/filter", "shape": [3, 3, 100, 100], "dtype": "float32", "quantization": {"dtype": "uint8", "min": -9.469384197160311, "scale": 0.07119837742225797, "original_dtype": "float32"}}, {"name": "model_101/tf.math.add_252/Add/y", "shape": [100], "dtype": "float32", "quantization": {"dtype": "uint8", "min": -4.872569544175092, "scale": 0.13534915400486366, "original_dtype": "float32"}}, {"name": "model_101/tf.nn.convolution_217/convolution/filter", "shape": [1, 1, 100, 601], "dtype": "float32", "quantization": {"dtype": "uint8", "min": -0.31999559589460785, "scale": 0.002405981924019608, "original_dtype": "float32"}}, {"name": "model_101/tf.math.add_255/Add/y", "shape": [601], "dtype": "float32", "quantization": {"dtype": "uint8", "min": -13.4375, "scale": 0.03632046568627451, "original_dtype": "float32"}}, {"name": "model_101/tf.concat_57/concat/axis", "shape": [], "dtype": "int32"}, {"name": "model_101/tf.compat.v1.transpose_129/transpose/perm", "shape": [4], "dtype": "int32"}, {"name": "model_101/tf.reshape_35/Reshape/shape", "shape": [3], "dtype": "int32"}, {"name": "model_101/tf.nn.convolution_221/convolution/filter", "shape": [3, 3, 256, 64], "dtype": "float32", "quantization": {"dtype": "uint8", "min": -1.2952569578208175, "scale": 0.00875173620149201, "original_dtype": "float32"}}, {"name": "model_101/tf.math.add_259/Add/y", "shape": [64], "dtype": "float32", "quantization": {"dtype": "uint8", "min": -2.4175924862132354, "scale": 0.0188874412985409, "original_dtype": "float32"}}, {"name": "model_101/tf.nn.convolution_223/convolution/filter", "shape": [3, 3, 64, 64], "dtype": "float32", "quantization": {"dtype": "uint8", "min": -2.506901011747473, "scale": 0.017409034803801893, "original_dtype": "float32"}}, {"name": "model_101/tf.math.add_261/Add/y", "shape": [64], "dtype": "float32", "quantization": {"dtype": "uint8", "min": -1.0985923823188333, "scale": 0.02816903544407265, "original_dtype": "float32"}}, {"name": "model_101/tf.nn.convolution_225/convolution/filter", "shape": [1, 1, 64, 64], "dtype": "float32", "quantization": {"dtype": "uint8", "min": -0.31560202205882354, "scale": 0.002355238970588235, "original_dtype": "float32"}}, {"name": "model_101/tf.math.add_263/Add/y", "shape": [64], "dtype": "float32", "quantization": {"dtype": "uint8", "min": -2.14906556372549, "scale": 0.02027420343137255, "original_dtype": "float32"}}, {"name": "model_101/tf.strided_slice_54/ones_like/tensor", "shape": [4], "dtype": "int32"}, {"name": "model_101/tf.strided_slice_54/StridedSlice/end", "shape": [4], "dtype": "int32"}, {"name": "model_101/tf.strided_slice_54/ones_like", "shape": [4], "dtype": "int32"}, {"name": "model_101/tf.strided_slice_52/ones_like/tensor", "shape": [4], "dtype": "int32"}, {"name": "model_101/tf.strided_slice_52/StridedSlice/end", "shape": [4], "dtype": "int32"}, {"name": "model_101/tf.strided_slice_52/ones_like", "shape": [4], "dtype": "int32"}, {"name": "model_101/tf.strided_slice_50/ones_like/tensor", "shape": [4], "dtype": "int32"}, {"name": "model_101/tf.strided_slice_50/StridedSlice/end", "shape": [4], "dtype": "int32"}, {"name": "model_101/tf.strided_slice_50/ones_like", "shape": [4], "dtype": "int32"}, {"name": "model_101/tf.image.resize_5/resize/size", "shape": [2], "dtype": "int32"}, {"name": "model_101/tf.concat_51/concat/axis", "shape": [], "dtype": "int32"}, {"name": "model_101/tf.nn.convolution_191/convolution/filter", "shape": [1, 1, 192, 64], "dtype": "float32", "quantization": {"dtype": "uint8", "min": -0.8130322026271446, "scale": 0.006351814083024567, "original_dtype": "float32"}}, {"name": "model_101/tf.math.add_229/Add/y", "shape": [64], "dtype": "float32", "quantization": {"dtype": "uint8", "min": -3.3626598470351277, "scale": 0.02241773231356752, "original_dtype": "float32"}}, {"name": "model_101/tf.strided_slice_51/ones_like/tensor", "shape": [4], "dtype": "int32"}, {"name": "model_101/tf.strided_slice_51/StridedSlice/end", "shape": [4], "dtype": "int32"}, {"name": "model_101/tf.strided_slice_51/ones_like", "shape": [4], "dtype": "int32"}, {"name": "model_101/tf.nn.convolution_194/convolution/filter", "shape": [3, 3, 32, 32], "dtype": "float32", "quantization": {"dtype": "uint8", "min": -0.7485110680262247, "scale": 0.006290008975010292, "original_dtype": "float32"}}, {"name": "model_101/tf.math.add_232/Add/y", "shape": [32], "dtype": "float32", "quantization": {"dtype": "uint8", "min": -1.4668365787057316, "scale": 0.016298184207841463, "original_dtype": "float32"}}, {"name": "model_101/tf.nn.convolution_197/convolution/filter", "shape": [3, 3, 32, 32], "dtype": "float32", "quantization": {"dtype": "uint8", "min": -1.5105948728673597, "scale": 0.010490242172689998, "original_dtype": "float32"}}, {"name": "model_101/tf.math.add_235/Add/y", "shape": [32], "dtype": "float32", "quantization": {"dtype": "uint8", "min": -4.0278984144622205, "scale": 0.02877070296044443, "original_dtype": "float32"}}, {"name": "model_101/tf.concat_52/concat/axis", "shape": [], "dtype": "int32"}, {"name": "model_101/tf.nn.convolution_198/convolution/filter", "shape": [1, 1, 96, 64], "dtype": "float32", "quantization": {"dtype": "uint8", "min": -1.8603999661464319, "scale": 0.011343902232600194, "original_dtype": "float32"}}, {"name": "model_101/tf.math.add_236/Add/y", "shape": [64], "dtype": "float32", "quantization": {"dtype": "uint8", "min": -3.4765327818253464, "scale": 0.03310983601738425, "original_dtype": "float32"}}, {"name": "model_101/tf.compat.v1.pad_19/Pad/paddings", "shape": [4, 2], "dtype": "int32"}, {"name": "model_101/tf.nn.convolution_199/convolution/filter", "shape": [3, 3, 64, 64], "dtype": "float32", "quantization": {"dtype": "uint8", "min": -0.8007143478767546, "scale": 0.00552216791639141, "original_dtype": "float32"}}, {"name": "model_101/tf.math.add_237/Add/y", "shape": [64], "dtype": "float32", "quantization": {"dtype": "uint8", "min": -5.391878330006319, "scale": 0.03456332262824564, "original_dtype": "float32"}}, {"name": "model_101/tf.strided_slice_48/ones_like/tensor", "shape": [4], "dtype": "int32"}, {"name": "model_101/tf.strided_slice_48/StridedSlice/end", "shape": [4], "dtype": "int32"}, {"name": "model_101/tf.strided_slice_48/ones_like", "shape": [4], "dtype": "int32"}, {"name": "model_101/tf.image.resize_4/resize/size", "shape": [2], "dtype": "int32"}, {"name": "model_101/tf.concat_49/concat/axis", "shape": [], "dtype": "int32"}, {"name": "model_101/tf.nn.convolution_187/convolution/filter", "shape": [1, 1, 384, 128], "dtype": "float32", "quantization": {"dtype": "uint8", "min": -1.5307216756484088, "scale": 0.010413072623458563, "original_dtype": "float32"}}, {"name": "model_101/tf.math.add_225/Add/y", "shape": [128], "dtype": "float32", "quantization": {"dtype": "uint8", "min": -4.7654863881129845, "scale": 0.02853584663540709, "original_dtype": "float32"}}, {"name": "model_101/tf.strided_slice_49/ones_like/tensor", "shape": [4], "dtype": "int32"}, {"name": "model_101/tf.strided_slice_49/StridedSlice/end", "shape": [4], "dtype": "int32"}, {"name": "model_101/tf.strided_slice_49/ones_like", "shape": [4], "dtype": "int32"}, {"name": "model_101/tf.nn.convolution_188/convolution/filter", "shape": [3, 3, 64, 64], "dtype": "float32", "quantization": {"dtype": "uint8", "min": -0.6330580094281365, "scale": 0.0043962361765842815, "original_dtype": "float32"}}, {"name": "model_101/tf.math.add_226/Add/y", "shape": [64], "dtype": "float32", "quantization": {"dtype": "uint8", "min": -2.521335798151353, "scale": 0.01680890532100902, "original_dtype": "float32"}}, {"name": "model_101/tf.nn.convolution_189/convolution/filter", "shape": [3, 3, 64, 64], "dtype": "float32", "quantization": {"dtype": "uint8", "min": -0.9592454358643175, "scale": 0.009049485244002996, "original_dtype": "float32"}}, {"name": "model_101/tf.math.add_227/Add/y", "shape": [64], "dtype": "float32", "quantization": {"dtype": "uint8", "min": -3.148749876022339, "scale": 0.020580064549165614, "original_dtype": "float32"}}, {"name": "model_101/tf.concat_50/concat/axis", "shape": [], "dtype": "int32"}, {"name": "model_101/tf.nn.convolution_190/convolution/filter", "shape": [1, 1, 192, 128], "dtype": "float32", "quantization": {"dtype": "uint8", "min": -1.7822102705637615, "scale": 0.010483589826845656, "original_dtype": "float32"}}, {"name": "model_101/tf.math.add_228/Add/y", "shape": [128], "dtype": "float32", "quantization": {"dtype": "uint8", "min": -2.460405164606431, "scale": 0.021029103970995135, "original_dtype": "float32"}}, {"name": "model_101/tf.concat_53/concat/axis", "shape": [], "dtype": "int32"}, {"name": "model_101/tf.nn.convolution_204/convolution/filter", "shape": [1, 1, 192, 128], "dtype": "float32", "quantization": {"dtype": "uint8", "min": -1.2486591829973108, "scale": 0.007902906221501967, "original_dtype": "float32"}}, {"name": "model_101/tf.math.add_242/Add/y", "shape": [128], "dtype": "float32", "quantization": {"dtype": "uint8", "min": -3.582570833318374, "scale": 0.023883805555455825, "original_dtype": "float32"}}, {"name": "model_101/tf.strided_slice_53/ones_like/tensor", "shape": [4], "dtype": "int32"}, {"name": "model_101/tf.strided_slice_53/StridedSlice/end", "shape": [4], "dtype": "int32"}, {"name": "model_101/tf.strided_slice_53/ones_like", "shape": [4], "dtype": "int32"}, {"name": "model_101/tf.nn.convolution_207/convolution/filter", "shape": [3, 3, 64, 64], "dtype": "float32", "quantization": {"dtype": "uint8", "min": -0.5862195190261392, "scale": 0.005281256928163417, "original_dtype": "float32"}}, {"name": "model_101/tf.math.add_245/Add/y", "shape": [64], "dtype": "float32", "quantization": {"dtype": "uint8", "min": -1.911353874206543, "scale": 0.014054072604459875, "original_dtype": "float32"}}, {"name": "model_101/tf.nn.convolution_208/convolution/filter", "shape": [3, 3, 64, 64], "dtype": "float32", "quantization": {"dtype": "uint8", "min": -1.545024860606474, "scale": 0.015606311723297718, "original_dtype": "float32"}}, {"name": "model_101/tf.math.add_246/Add/y", "shape": [64], "dtype": "float32", "quantization": {"dtype": "uint8", "min": -3.2273525583977793, "scale": 0.02225760385101917, "original_dtype": "float32"}}, {"name": "model_101/tf.concat_55/concat/axis", "shape": [], "dtype": "int32"}, {"name": "model_101/tf.nn.convolution_209/convolution/filter", "shape": [1, 1, 192, 128], "dtype": "float32", "quantization": {"dtype": "uint8", "min": -1.4260957813730426, "scale": 0.0081491187507031, "original_dtype": "float32"}}, {"name": "model_101/tf.math.add_247/Add/y", "shape": [128], "dtype": "float32", "quantization": {"dtype": "uint8", "min": -3.642750898996989, "scale": 0.02142794646468817, "original_dtype": "float32"}}, {"name": "model_101/tf.compat.v1.pad_20/Pad/paddings", "shape": [4, 2], "dtype": "int32"}, {"name": "model_101/tf.nn.convolution_210/convolution/filter", "shape": [3, 3, 128, 128], "dtype": "float32", "quantization": {"dtype": "uint8", "min": -0.3832451383272807, "scale": 0.0026249667008717854, "original_dtype": "float32"}}, {"name": "model_101/tf.math.add_248/Add/y", "shape": [128], "dtype": "float32", "quantization": {"dtype": "uint8", "min": -4.624319425283693, "scale": 0.021608969277026605, "original_dtype": "float32"}}, {"name": "model_101/tf.strided_slice_46/ones_like/tensor", "shape": [4], "dtype": "int32"}, {"name": "model_101/tf.strided_slice_46/StridedSlice/end", "shape": [4], "dtype": "int32"}, {"name": "model_101/tf.strided_slice_46/ones_like", "shape": [4], "dtype": "int32"}, {"name": "model_101/tf.strided_slice_44/ones_like/tensor", "shape": [4], "dtype": "int32"}, {"name": "model_101/tf.strided_slice_44/StridedSlice/end", "shape": [4], "dtype": "int32"}, {"name": "model_101/tf.strided_slice_44/ones_like", "shape": [4], "dtype": "int32"}, {"name": "model_101/tf.strided_slice_42/ones_like/tensor", "shape": [4], "dtype": "int32"}, {"name": "model_101/tf.strided_slice_42/StridedSlice/end", "shape": [4], "dtype": "int32"}, {"name": "model_101/tf.strided_slice_42/ones_like", "shape": [4], "dtype": "int32"}, {"name": "model_101/tf.strided_slice_40/ones_like/tensor", "shape": [4], "dtype": "int32"}, {"name": "model_101/tf.strided_slice_40/StridedSlice/end", "shape": [4], "dtype": "int32"}, {"name": "model_101/tf.strided_slice_40/ones_like", "shape": [4], "dtype": "int32"}, {"name": "model_101/tf.compat.v1.pad_14/Pad/paddings", "shape": [4, 2], "dtype": "int32"}, {"name": "model_101/tf.nn.convolution_152/convolution/filter", "shape": [3, 3, 3, 16], "dtype": "float32", "quantization": {"dtype": "uint8", "min": -21.2453805512073, "scale": 0.1235196543674843, "original_dtype": "float32"}}, {"name": "model_101/tf.math.add_178/Add/y", "shape": [16], "dtype": "float32", "quantization": {"dtype": "uint8", "min": -11.658317868849812, "scale": 0.06513026742374196, "original_dtype": "float32"}}, {"name": "model_101/tf.compat.v1.pad_15/Pad/paddings", "shape": [4, 2], "dtype": "int32"}, {"name": "model_101/tf.nn.convolution_153/convolution/filter", "shape": [3, 3, 16, 32], "dtype": "float32", "quantization": {"dtype": "uint8", "min": -2.8126903421738567, "scale": 0.020834743275361903, "original_dtype": "float32"}}, {"name": "model_101/tf.math.add_179/Add/y", "shape": [32], "dtype": "float32", "quantization": {"dtype": "uint8", "min": -7.779078356424968, "scale": 0.08548437754313151, "original_dtype": "float32"}}, {"name": "model_101/tf.nn.convolution_154/convolution/filter", "shape": [1, 1, 32, 32], "dtype": "float32", "quantization": {"dtype": "uint8", "min": -1.2299458148432714, "scale": 0.009918917861639285, "original_dtype": "float32"}}, {"name": "model_101/tf.math.add_180/Add/y", "shape": [32], "dtype": "float32", "quantization": {"dtype": "uint8", "min": -8.439217840456495, "scale": 0.07535015928979014, "original_dtype": "float32"}}, {"name": "model_101/tf.strided_slice_41/ones_like/tensor", "shape": [4], "dtype": "int32"}, {"name": "model_101/tf.strided_slice_41/StridedSlice/end", "shape": [4], "dtype": "int32"}, {"name": "model_101/tf.strided_slice_41/ones_like", "shape": [4], "dtype": "int32"}, {"name": "model_101/tf.nn.convolution_155/convolution/filter", "shape": [3, 3, 16, 16], "dtype": "float32", "quantization": {"dtype": "uint8", "min": -0.998267567391489, "scale": 0.009691918130014457, "original_dtype": "float32"}}, {"name": "model_101/tf.math.add_181/Add/y", "shape": [16], "dtype": "float32", "quantization": {"dtype": "uint8", "min": 0.6024758815765381, "scale": 0.02555879050610112, "original_dtype": "float32"}}, {"name": "model_101/tf.nn.convolution_156/convolution/filter", "shape": [3, 3, 16, 16], "dtype": "float32", "quantization": {"dtype": "uint8", "min": -1.17211093341603, "scale": 0.009933143503525678, "original_dtype": "float32"}}, {"name": "model_101/tf.math.add_182/Add/y", "shape": [16], "dtype": "float32", "quantization": {"dtype": "uint8", "min": -5.138745251823874, "scale": 0.08564575419706456, "original_dtype": "float32"}}, {"name": "model_101/tf.concat_44/concat/axis", "shape": [], "dtype": "int32"}, {"name": "model_101/tf.nn.convolution_157/convolution/filter", "shape": [1, 1, 48, 32], "dtype": "float32", "quantization": {"dtype": "uint8", "min": -0.41735530495643614, "scale": 0.0035071874366087072, "original_dtype": "float32"}}, {"name": "model_101/tf.math.add_185/Add/y", "shape": [32], "dtype": "float32", "quantization": {"dtype": "uint8", "min": -3.2584420849295226, "scale": 0.02883577066309312, "original_dtype": "float32"}}, {"name": "model_101/tf.compat.v1.pad_16/Pad/paddings", "shape": [4, 2], "dtype": "int32"}, {"name": "model_101/tf.nn.convolution_158/convolution/filter", "shape": [3, 3, 32, 64], "dtype": "float32", "quantization": {"dtype": "uint8", "min": -0.6080710651827794, "scale": 0.005682907151240929, "original_dtype": "float32"}}, {"name": "model_101/tf.math.add_186/Add/y", "shape": [64], "dtype": "float32", "quantization": {"dtype": "uint8", "min": -4.202172531801112, "scale": 0.032574980866675284, "original_dtype": "float32"}}, {"name": "model_101/tf.nn.convolution_159/convolution/filter", "shape": [1, 1, 64, 64], "dtype": "float32", "quantization": {"dtype": "uint8", "min": -1.3946391414193546, "scale": 0.009618200975305894, "original_dtype": "float32"}}, {"name": "model_101/tf.math.add_187/Add/y", "shape": [64], "dtype": "float32", "quantization": {"dtype": "uint8", "min": -4.229786985060748, "scale": 0.038106189054601336, "original_dtype": "float32"}}, {"name": "model_101/tf.strided_slice_43/ones_like/tensor", "shape": [4], "dtype": "int32"}, {"name": "model_101/tf.strided_slice_43/StridedSlice/end", "shape": [4], "dtype": "int32"}, {"name": "model_101/tf.strided_slice_43/ones_like", "shape": [4], "dtype": "int32"}, {"name": "model_101/tf.nn.convolution_162/convolution/filter", "shape": [3, 3, 32, 32], "dtype": "float32", "quantization": {"dtype": "uint8", "min": -1.0687543822269814, "scale": 0.008158430398679247, "original_dtype": "float32"}}, {"name": "model_101/tf.math.add_190/Add/y", "shape": [32], "dtype": "float32", "quantization": {"dtype": "uint8", "min": -2.5850426683238905, "scale": 0.022478631898468614, "original_dtype": "float32"}}, {"name": "model_101/tf.nn.convolution_165/convolution/filter", "shape": [3, 3, 32, 32], "dtype": "float32", "quantization": {"dtype": "uint8", "min": -1.1608523340786203, "scale": 0.007489369897281422, "original_dtype": "float32"}}, {"name": "model_101/tf.math.add_193/Add/y", "shape": [32], "dtype": "float32", "quantization": {"dtype": "uint8", "min": -1.4811527476591224, "scale": 0.018062838386086858, "original_dtype": "float32"}}, {"name": "model_101/tf.nn.convolution_168/convolution/filter", "shape": [3, 3, 32, 32], "dtype": "float32", "quantization": {"dtype": "uint8", "min": -0.6458724031261369, "scale": 0.004856183482151406, "original_dtype": "float32"}}, {"name": "model_101/tf.math.add_198/Add/y", "shape": [32], "dtype": "float32", "quantization": {"dtype": "uint8", "min": -1.333731029547897, "scale": 0.012948844947066962, "original_dtype": "float32"}}, {"name": "model_101/tf.nn.convolution_171/convolution/filter", "shape": [3, 3, 32, 32], "dtype": "float32", "quantization": {"dtype": "uint8", "min": -1.6209346560870899, "scale": 0.01237354699303122, "original_dtype": "float32"}}, {"name": "model_101/tf.math.add_201/Add/y", "shape": [32], "dtype": "float32", "quantization": {"dtype": "uint8", "min": -5.477103020163144, "scale": 0.03803543764002183, "original_dtype": "float32"}}, {"name": "model_101/tf.concat_45/concat/axis", "shape": [], "dtype": "int32"}, {"name": "model_101/tf.nn.convolution_172/convolution/filter", "shape": [1, 1, 128, 64], "dtype": "float32", "quantization": {"dtype": "uint8", "min": -0.6349218508776496, "scale": 0.004921874813005036, "original_dtype": "float32"}}, {"name": "model_101/tf.math.add_204/Add/y", "shape": [64], "dtype": "float32", "quantization": {"dtype": "uint8", "min": -2.0414927763097426, "scale": 0.022190138872931985, "original_dtype": "float32"}}, {"name": "model_101/tf.compat.v1.pad_17/Pad/paddings", "shape": [4, 2], "dtype": "int32"}, {"name": "model_101/tf.nn.convolution_173/convolution/filter", "shape": [3, 3, 64, 128], "dtype": "float32", "quantization": {"dtype": "uint8", "min": -0.607943470805299, "scale": 0.004571003539889466, "original_dtype": "float32"}}, {"name": "model_101/tf.math.add_205/Add/y", "shape": [128], "dtype": "float32", "quantization": {"dtype": "uint8", "min": -4.18367197934319, "scale": 0.02535558775359509, "original_dtype": "float32"}}, {"name": "model_101/tf.nn.convolution_174/convolution/filter", "shape": [1, 1, 128, 128], "dtype": "float32", "quantization": {"dtype": "uint8", "min": -2.7681106875924506, "scale": 0.01590868211260029, "original_dtype": "float32"}}, {"name": "model_101/tf.math.add_206/Add/y", "shape": [128], "dtype": "float32", "quantization": {"dtype": "uint8", "min": -4.622616543489343, "scale": 0.033741726594812727, "original_dtype": "float32"}}, {"name": "model_101/tf.strided_slice_45/ones_like/tensor", "shape": [4], "dtype": "int32"}, {"name": "model_101/tf.strided_slice_45/StridedSlice/end", "shape": [4], "dtype": "int32"}, {"name": "model_101/tf.strided_slice_45/ones_like", "shape": [4], "dtype": "int32"}, {"name": "model_101/tf.nn.convolution_175/convolution/filter", "shape": [3, 3, 64, 64], "dtype": "float32", "quantization": {"dtype": "uint8", "min": -0.9101502446567311, "scale": 0.007399595485014074, "original_dtype": "float32"}}, {"name": "model_101/tf.math.add_207/Add/y", "shape": [64], "dtype": "float32", "quantization": {"dtype": "uint8", "min": -2.699234966203278, "scale": 0.021768023920994178, "original_dtype": "float32"}}, {"name": "model_101/tf.nn.convolution_176/convolution/filter", "shape": [3, 3, 64, 64], "dtype": "float32", "quantization": {"dtype": "uint8", "min": -1.0263626416524252, "scale": 0.007546784129797243, "original_dtype": "float32"}}, {"name": "model_101/tf.math.add_208/Add/y", "shape": [64], "dtype": "float32", "quantization": {"dtype": "uint8", "min": -3.117358795801799, "scale": 0.017415412267049155, "original_dtype": "float32"}}, {"name": "model_101/tf.nn.convolution_177/convolution/filter", "shape": [3, 3, 64, 64], "dtype": "float32", "quantization": {"dtype": "uint8", "min": -0.6526721772025613, "scale": 0.005179937914306042, "original_dtype": "float32"}}, {"name": "model_101/tf.math.add_211/Add/y", "shape": [64], "dtype": "float32", "quantization": {"dtype": "uint8", "min": -1.9721868842255836, "scale": 0.013888640029757631, "original_dtype": "float32"}}, {"name": "model_101/tf.nn.convolution_178/convolution/filter", "shape": [3, 3, 64, 64], "dtype": "float32", "quantization": {"dtype": "uint8", "min": -1.1922650599012188, "scale": 0.009772664425419826, "original_dtype": "float32"}}, {"name": "model_101/tf.math.add_212/Add/y", "shape": [64], "dtype": "float32", "quantization": {"dtype": "uint8", "min": -2.8548109335057874, "scale": 0.02213031731399835, "original_dtype": "float32"}}, {"name": "model_101/tf.concat_46/concat/axis", "shape": [], "dtype": "int32"}, {"name": "model_101/tf.nn.convolution_179/convolution/filter", "shape": [1, 1, 256, 128], "dtype": "float32", "quantization": {"dtype": "uint8", "min": -0.4921363665777094, "scale": 0.0035922362523920395, "original_dtype": "float32"}}, {"name": "model_101/tf.math.add_215/Add/y", "shape": [128], "dtype": "float32", "quantization": {"dtype": "uint8", "min": -1.9920627930585078, "scale": 0.015810022167131014, "original_dtype": "float32"}}, {"name": "model_101/tf.compat.v1.pad_18/Pad/paddings", "shape": [4, 2], "dtype": "int32"}, {"name": "model_101/tf.nn.convolution_180/convolution/filter", "shape": [3, 3, 128, 256], "dtype": "float32", "quantization": {"dtype": "uint8", "min": -0.7913925124149697, "scale": 0.005311359143724628, "original_dtype": "float32"}}, {"name": "model_101/tf.math.add_216/Add/y", "shape": [256], "dtype": "float32", "quantization": {"dtype": "uint8", "min": -5.148812139735503, "scale": 0.026404164819156424, "original_dtype": "float32"}}, {"name": "model_101/tf.nn.convolution_181/convolution/filter", "shape": [1, 1, 256, 256], "dtype": "float32", "quantization": {"dtype": "uint8", "min": -2.2268983008814796, "scale": 0.015252728088229311, "original_dtype": "float32"}}, {"name": "model_101/tf.math.add_217/Add/y", "shape": [256], "dtype": "float32", "quantization": {"dtype": "uint8", "min": -4.481225473740522, "scale": 0.025754169389313342, "original_dtype": "float32"}}, {"name": "model_101/tf.strided_slice_47/ones_like/tensor", "shape": [4], "dtype": "int32"}, {"name": "model_101/tf.strided_slice_47/StridedSlice/end", "shape": [4], "dtype": "int32"}, {"name": "model_101/tf.strided_slice_47/ones_like", "shape": [4], "dtype": "int32"}, {"name": "model_101/tf.nn.convolution_182/convolution/filter", "shape": [3, 3, 128, 128], "dtype": "float32", "quantization": {"dtype": "uint8", "min": -0.869153502408196, "scale": 0.006534988739911248, "original_dtype": "float32"}}, {"name": "model_101/tf.math.add_218/Add/y", "shape": [128], "dtype": "float32", "quantization": {"dtype": "uint8", "min": -2.8583598417394303, "scale": 0.02646629483092065, "original_dtype": "float32"}}, {"name": "model_101/tf.nn.convolution_183/convolution/filter", "shape": [3, 3, 128, 128], "dtype": "float32", "quantization": {"dtype": "uint8", "min": -0.7569859822591145, "scale": 0.005566073398964077, "original_dtype": "float32"}}, {"name": "model_101/tf.math.add_219/Add/y", "shape": [128], "dtype": "float32", "quantization": {"dtype": "uint8", "min": -1.809790015220642, "scale": 0.03548607872981651, "original_dtype": "float32"}}, {"name": "model_101/tf.concat_47/concat/axis", "shape": [], "dtype": "int32"}, {"name": "model_101/tf.nn.convolution_184/convolution/filter", "shape": [1, 1, 384, 256], "dtype": "float32", "quantization": {"dtype": "uint8", "min": -0.5064717404982623, "scale": 0.0038369071249868356, "original_dtype": "float32"}}, {"name": "model_101/tf.math.add_222/Add/y", "shape": [256], "dtype": "float32", "quantization": {"dtype": "uint8", "min": -3.0655539363038304, "scale": 0.02358118412541408, "original_dtype": "float32"}}, {"name": "model_101/tf.nn.convolution_185/convolution/filter", "shape": [1, 1, 256, 128], "dtype": "float32", "quantization": {"dtype": "uint8", "min": -0.603407645926756, "scale": 0.003892952554366168, "original_dtype": "float32"}}, {"name": "model_101/tf.math.add_223/Add/y", "shape": [128], "dtype": "float32", "quantization": {"dtype": "uint8", "min": -0.45389644959393666, "scale": 0.018912352066414027, "original_dtype": "float32"}}, {"name": "model_101/tf.concat_48/concat/axis", "shape": [], "dtype": "int32"}, {"name": "model_101/tf.nn.convolution_186/convolution/filter", "shape": [1, 1, 512, 256], "dtype": "float32", "quantization": {"dtype": "uint8", "min": -0.40214955175624173, "scale": 0.0048451753223643585, "original_dtype": "float32"}}, {"name": "model_101/tf.math.add_224/Add/y", "shape": [256], "dtype": "float32", "quantization": {"dtype": "uint8", "min": -10.748983966602998, "scale": 0.0833254571054496, "original_dtype": "float32"}}, {"name": "model_101/tf.concat_56/concat/axis", "shape": [], "dtype": "int32"}, {"name": "model_101/tf.nn.convolution_215/convolution/filter", "shape": [1, 1, 384, 256], "dtype": "float32", "quantization": {"dtype": "uint8", "min": -1.4342955047009038, "scale": 0.01215504665000766, "original_dtype": "float32"}}, {"name": "model_101/tf.math.add_253/Add/y", "shape": [256], "dtype": "float32", "quantization": {"dtype": "uint8", "min": -4.980319168988396, "scale": 0.02946934419519761, "original_dtype": "float32"}}, {"name": "model_101/tf.strided_slice_55/ones_like/tensor", "shape": [4], "dtype": "int32"}, {"name": "model_101/tf.strided_slice_55/StridedSlice/end", "shape": [4], "dtype": "int32"}, {"name": "model_101/tf.strided_slice_55/ones_like", "shape": [4], "dtype": "int32"}, {"name": "model_101/tf.nn.convolution_218/convolution/filter", "shape": [3, 3, 128, 128], "dtype": "float32", "quantization": {"dtype": "uint8", "min": -0.5797306299209595, "scale": 0.005270278453826905, "original_dtype": "float32"}}, {"name": "model_101/tf.math.add_256/Add/y", "shape": [128], "dtype": "float32", "quantization": {"dtype": "uint8", "min": -3.1900282336216343, "scale": 0.020714469049491133, "original_dtype": "float32"}}, {"name": "model_101/tf.nn.convolution_219/convolution/filter", "shape": [3, 3, 128, 128], "dtype": "float32", "quantization": {"dtype": "uint8", "min": -1.1270743650548598, "scale": 0.00873701058182062, "original_dtype": "float32"}}, {"name": "model_101/tf.math.add_257/Add/y", "shape": [128], "dtype": "float32", "quantization": {"dtype": "uint8", "min": -2.684365676431095, "scale": 0.016170877568862017, "original_dtype": "float32"}}, {"name": "model_101/tf.concat_58/concat/axis", "shape": [], "dtype": "int32"}, {"name": "model_101/tf.nn.convolution_220/convolution/filter", "shape": [1, 1, 384, 256], "dtype": "float32", "quantization": {"dtype": "uint8", "min": -2.255441569814495, "scale": 0.01239253609788184, "original_dtype": "float32"}}, {"name": "model_101/tf.math.add_258/Add/y", "shape": [256], "dtype": "float32", "quantization": {"dtype": "uint8", "min": -3.4884136134502937, "scale": 0.026228673785340554, "original_dtype": "float32"}}, {"name": "model_101/tf.nn.convolution_222/convolution/filter", "shape": [3, 3, 256, 100], "dtype": "float32", "quantization": {"dtype": "uint8", "min": -1.2483866004382864, "scale": 0.007053031640894273, "original_dtype": "float32"}}, {"name": "model_101/tf.math.add_260/Add/y", "shape": [100], "dtype": "float32", "quantization": {"dtype": "uint8", "min": -3.595654024797327, "scale": 0.03360424322240493, "original_dtype": "float32"}}, {"name": "model_101/tf.nn.convolution_224/convolution/filter", "shape": [3, 3, 100, 100], "dtype": "float32", "quantization": {"dtype": "uint8", "min": -7.1030490351658235, "scale": 0.06342008067112342, "original_dtype": "float32"}}, {"name": "model_101/tf.math.add_262/Add/y", "shape": [100], "dtype": "float32", "quantization": {"dtype": "uint8", "min": -4.6545646443086515, "scale": 0.12929346234190697, "original_dtype": "float32"}}, {"name": "model_101/tf.nn.convolution_226/convolution/filter", "shape": [1, 1, 100, 601], "dtype": "float32", "quantization": {"dtype": "uint8", "min": -0.408251953125, "scale": 0.002668313419117647, "original_dtype": "float32"}}, {"name": "model_101/tf.math.add_264/Add/y", "shape": [601], "dtype": "float32", "quantization": {"dtype": "uint8", "min": -12.1015625, "scale": 0.027971813725490197, "original_dtype": "float32"}}, {"name": "model_101/tf.concat_59/concat/axis", "shape": [], "dtype": "int32"}, {"name": "model_101/tf.compat.v1.transpose_134/transpose/perm", "shape": [4], "dtype": "int32"}, {"name": "model_101/tf.reshape_38/Reshape/shape", "shape": [3], "dtype": "int32"}, {"name": "model_101/tf.concat_60/concat/axis", "shape": [], "dtype": "int32"}, {"name": "model_101/tf.strided_slice_57/StridedSlice/begin", "shape": [3], "dtype": "int32"}, {"name": "model_101/tf.strided_slice_57/StridedSlice/end", "shape": [3], "dtype": "int32"}, {"name": "model_101/tf.strided_slice_57/StridedSlice/strides", "shape": [3], "dtype": "int32"}, {"name": "model_101/output0/concat/axis", "shape": [], "dtype": "int32"}]}]}